code/save/model_amw6ox6bzn.pt (torch, 649111 bytes, 6 tensors)

embed.weight f4 [59, 256]
0	0xbd2903ca	-0.04126338
1	0x3df27295	0.11838261
2	0xbe35c78d	-0.17751904
3	0x3e50ec63	0.20402674
4	0xbbc78a37	-0.0060894745
5	0xbe4a833a	-0.19776621
6	0xbe04fe90	-0.12987733
7	0xbd44371d	-0.047904123
8	0x3deb94d4	0.11502996
9	0xbe59214f	-0.21204112
10	0xbe178562	-0.14796975
11	0xbd801c95	-0.062554516
12	0xbd817970	-0.063219905
13	0xbe1f38fd	-0.15549083
14	0x3dfa4432	0.122200385
15	0x3d4c9737	0.049948897
16	0xbc8bc566	-0.0170619
17	0xbdc48fed	-0.09597764
18	0xbc3b44d9	-0.011429989
19	0x3e52526f	0.20539258
20	0xbe0e4d86	-0.1389676
21	0x3d90e469	0.07074816
22	0xbe1f07c8	-0.15530312
23	0x3c8b5bbf	0.017011521
24	0xbe4630e2	-0.19354585
25	0xbe4c852f	-0.1997268
26	0xbd86a8c7	-0.065751605
27	0x3e00d7d2	0.12582329
28	0x3e290911	0.16507365
29	0xbddacb18	-0.10683268
30	0x3dd64d0e	0.10463916
31	0xbe08570a	-0.13314453
32	0xbc9b0efd	-0.018928045
33	0xbc9e3fc3	-0.019317513
34	0xbd1cc1cf	-0.038270768
35	0x3c717730	0.014737889
36	0x3e16c895	0.14724953
37	0x3da9c3e3	0.082893156
38	0x3e7911c2	0.2432318
39	0x3e4e22b1	0.20130421
40	0x3dc5c4aa	0.09656651
41	0x3c900a59	0.01758306
42	0xbd310d35	-0.043225486
43	0x3e57e965	0.21085127
44	0xbbb84e15	-0.0056245425
45	0xbe172d4e	-0.14763376
46	0xbe441b96	-0.19151148
47	0xbd4ab4bd	-0.04948877
48	0xbd93ebbb	-0.072226964
49	0x3e43d919	0.19125785
50	0x3c43c329	0.011948385
51	0xbdbeba57	-0.09312885
52	0x3d361879	0.044456933
53	0x3d099f90	0.033599436
54	0x3e21a2ea	0.15784803
55	0x3e02fd5c	0.12791961
56	0x3c2c4193	0.010513681
57	0x3e17d640	0.14827824
58	0x3a8e5160	0.0010857992
59	0x3d107e88	0.03527692
60	0xbd3a3cb1	-0.045468036
61	0x3e3c65df	0.18398236
62	0xbd6a7658	-0.057241768
63	0xbd75883f	-0.059944388
64	0x3e0d9fa5	0.13830431
65	0xbdea525c	-0.1144149
66	0x3bd09cf5	0.006366367
67	0xbdf9f7f2	-0.12205495
68	0xbe08dc2a	-0.13365236
69	0x3dcf4dd0	0.101222634
70	0x3e097b6e	0.13425991
71	0xbe13d824	-0.1443792
72	0x3db464ba	0.088082746
73	0xbe3a1de3	-0.18175463
74	0x3dcfbfc0	0.10143995
75	0xbd034d14	-0.03205593
76	0xbe3e8ab8	-0.18607605
77	0x3e113545	0.14180477
78	0xbdf8e929	-0.12153847
79	0xbe0b05e5	-0.13576467
80	0x3ca4ec5c	0.020132236
81	0xbe11b221	-0.14228107
82	0x3e3904f8	0.18068302
83	0x3c4daa01	0.012552739
84	0xbd1e2635	-0.038610656
85	0x3e37a689	0.17934622
86	0x3e0e73a0	0.13911295
87	0xbdf0c11b	-0.11755582
88	0x3d64b80f	0.055839594
89	0x3e2188be	0.15774819
90	0x3e05f843	0.13082986
91	0xbc891837	-0.01673518
92	0x3d30ebab	0.0431935
93	0xbdf5aebb	-0.11996218
94	0xbc39e9be	-0.011347232
95	0x3dfc341f	0.12314629
96	0x3d6cc029	0.057800446
97	0x3e075cea	0.13219038
98	0x3d7d5298	0.061846346
99	0x3e452247	0.19251357
100	0xbe5f2d6e	-0.21794674
101	0xbe3ef1d4	-0.18646938
102	0x3d79464e	0.060858063
103	0x3e2742c5	0.16334064
104	0x3e13894d	0.14407845
105	0xbe5a37fe	-0.21310422
106	0x3d5ef801	0.054435734
107	0x3df93bb9	0.12169594
108	0xba0c68b4	-0.0005356178
109	0x3d821f93	0.063536786
110	0xbddb1b65	-0.106985845
111	0xbdd61db3	-0.104548834
112	0xbd901842	-0.07035877
113	0xbdcf5ccf	-0.10125124
114	0xbdc1c82b	-0.09462007
115	0x3e260a58	0.16214883
116	0x3d04db4d	0.032435704
117	0xbe462a64	-0.19352108
118	0x3dc2e484	0.09516242
119	0xbd7610ec	-0.06007473
120	0xbd4d9950	-0.05019504
121	0x3e163a2a	0.14670625
122	0xbce98167	-0.028504087
123	0xbdea4622	-0.11439158
124	0xbd60338e	-0.054736666
125	0xbe383f68	-0.17992938
126	0xbd8a4a43	-0.067524455
127	0xbe06b4c4	-0.13154894
128	0xbc8780c8	-0.0165409
129	0xbd0450e4	-0.032303706
130	0x3dea9c9a	0.11455651
131	0xbcb78ee4	-0.022407003
132	0xbe0de989	-0.13858618
133	0xbe1637d7	-0.14669739
134	0xbce16b76	-0.027517062
135	0xbdff9de5	-0.12481288
136	0xbdd21225	-0.10257367
137	0xbe5537d3	-0.20822076
138	0x3e72909c	0.23687977
139	0x3c9a262d	0.018817032
140	0x3d002884	0.03128864
141	0xbd7fbeb1	-0.062437717
142	0x3d789a97	0.060694303
143	0x3e4f9abd	0.20273872
144	0x3d3e9592	0.04652936
145	0x3e3921b6	0.18079266
146	0xbcbd179b	-0.023082545
147	0x3de5fa11	0.11229337
148	0xbdba7189	-0.09103686
149	0xbe309daf	-0.17247652
150	0xbddb06a9	-0.1069463
151	0xbd052476	-0.032505475
152	0xbaf42e16	-0.0018629457
153	0x3e486d75	0.19573005
154	0xbe0b0495	-0.13575967
155	0x3a56412b	0.0008173163
156	0x3dc17587	0.09446245
157	0x3d169f62	0.036773093
158	0xbb3b0bbf	-0.0028540937
159	0x3de8260c	0.11335382
160	0xbd827b81	-0.06371213
161	0x3df1aa4d	0.118000604
162	0xbd671c42	-0.056423433
163	0x3d9c78e2	0.07640244
164	0xbe26cb2b	-0.1628844
165	0x3e17ce89	0.1482488
166	0xbe559dd2	-0.20860985
167	0xbe1cfc73	-0.15330677
168	0x3d716c8b	0.058941405
169	0x3e45b7d5	0.19308408
170	0x3db8aa98	0.09016913
171	0x3c93aa67	0.01802559
172	0x3d2b258d	0.041783858
173	0x3dbf1486	0.093300864
174	0xbcc7bc61	-0.024381818
175	0xbdadf3ca	-0.08493765
176	0x3e147fd3	0.14501886
177	0x3e03c6f0	0.12868857
178	0x3e4f9347	0.20271026
179	0x3e06bd85	0.13158233
180	0xbd4bf1ae	-0.04979103
181	0x3ce85a04	0.028363235
182	0xbe2a7ef3	-0.1664999
183	0xbcb8995d	-0.022534067
184	0x3e4081ab	0.18799464
185	0xbce19f37	-0.02754174
186	0xbd17694e	-0.03696566
187	0xbd71ab73	-0.059001397
188	0xbdc96acb	-0.09834822
189	0x3d25fb82	0.04052306
190	0xbda516d7	-0.08060997
191	0x3e0693ec	0.13142365
192	0xbd6e94d4	-0.058247402
193	0xbe1ee6e5	-0.15517767
194	0x3e6a675a	0.22890988
195	0xbd9a9adc	-0.07549068
196	0x3d426910	0.047463477
197	0x3e32b365	0.17451246
198	0xbdaef2b5	-0.085423864
199	0x3e531f44	0.20617396
200	0xbe001af2	-0.12510279
201	0xbe0da2d5	-0.13831647
202	0x3e46d72c	0.19418019
203	0xbc235e3d	-0.009971199
204	0xbe156171	-0.14587952
205	0x3d9fa020	0.07794213
206	0x3dbd6260	0.09247279
207	0x3e253591	0.16133715
208	0x3d20ac16	0.039226614
209	0xbcba07a0	-0.022708714
210	0x3e03d2cc	0.12873381
211	0x3cf70b8b	0.030156871
212	0xbe40112b	-0.18756549
213	0x3c485830	0.012228057
214	0x3c9a7c46	0.018858086
215	0xbd430ef6	-0.04762169
216	0x3de9e219	0.11420078
217	0xbe277383	-0.16352658
218	0xbc1a13d9	-0.009404146
219	0xbd4e4672	-0.05036015
220	0x3dc50348	0.096197665
221	0xbd855dbe	-0.065120205
222	0x3e2befc3	0.1679068
223	0xbdd0fb13	-0.102041386
224	0xbdcb32ee	-0.099218234
225	0xbda6979a	-0.081343845
226	0x3e1be6e0	0.1522479
227	0x3d936647	0.07197242
228	0x3df62448	0.12018639
229	0x3e261131	0.16217496
230	0x3e2a7f07	0.1665002
231	0x3ca640f8	0.020294651
232	0xbdea60f1	-0.11444271
233	0xbccb1906	-0.024792206
234	0xbde3c9e6	-0.111224934
235	0xbe3f8331	-0.1870239
236	0x3cfa8411	0.030580552
237	0xbe202884	-0.15640455
238	0xbe00b32a	-0.12568346
239	0x3c668bc7	0.014071411
240	0x3e262eca	0.16228786
241	0xbd6e6349	-0.058200154
242	0x3e5ac84e	0.21365473
243	0xbd05a7e8	-0.03263083
244	0xbdde087a	-0.108414605
245	0xbe11316d	-0.1417901
246	0xbe054a81	-0.13016702
247	0x3e18f453	0.14936952
248	0x3d0465b3	0.03232355
249	0xbd8880dd	-0.06665204
250	0xbd16cee2	-0.036818393
251	0xbe31ad39	-0.17351235
252	0x3e343522	0.17598394
253	0x3dfb5b40	0.12273264
254	0x3dffb187	0.124850325
255	0x3dd51537	0.10404437

unembed.weight f4 [59, 256]
0	0xbd07e989	-0.0331817
1	0xbcd6a386	-0.02620102
2	0x3d598e84	0.05311443
3	0x3dc60026	0.09667997
4	0xbdc6a781	-0.096999176
5	0x3e092eb9	0.1339673
6	0x3dcbcb91	0.099509366
7	0xbe27c9f1	-0.16385628
8	0xbe576674	-0.21035177
9	0xbd8e561b	-0.06950017
10	0x3dabe2eb	0.083928905
11	0xbd1608ed	-0.036629606
12	0xbddce379	-0.107855745
13	0x3dea2c25	0.11434201
14	0x3d6f7670	0.05846256
15	0x3d5f3b74	0.05450006
16	0xbe24c97b	-0.16092484
17	0xbd153ce3	-0.03643502
18	0xbdc99459	-0.09842748
19	0xbe576728	-0.21035445
20	0xbca0c64d	-0.019625807
21	0x3e0b6faa	0.13616815
22	0xbd842d93	-0.06454005
23	0x3e0ebea9	0.13939919
24	0xbe0761bf	-0.13220881
25	0xbdf7f631	-0.12107504
26	0xbe06b43a	-0.13154688
27	0x3d863967	0.065539174
28	0xbc274ec3	-0.010211649
29	0xbe419a7f	-0.18906592
30	0x3d7d2e29	0.0618116
31	0x3db24515	0.087045826
32	0xbe177066	-0.1478897
33	0xbdc480b7	-0.09594863
34	0x3bb9d507	0.005671147
35	0x3d5723b8	0.0525243
36	0x3dffbe4f	0.1248747
37	0x3d4f8767	0.05066624
38	0xbdcde68d	-0.1005374
39	0xbe1b07da	-0.15139714
40	0xbd1d1003	-0.038345348
41	0x3d8073f1	0.06272114
42	0x3dce4d53	0.10073342
43	0x3c8ea411	0.017412217
44	0x3e19f26c	0.15033883
45	0xbd1c5e91	-0.038176123
46	0xbd9f2740	-0.07771158
47	0x3e42ad5b	0.19011442
48	0x3e1f4f36	0.1555756
49	0x3ce9aa66	0.028523635
50	0xbc1e372d	-0.00965671
51	0x3d6b6446	0.057468675
52	0x3e02902c	0.1275031
53	0x3dc440fa	0.09582706
54	0x3dc06184	0.093936
55	0x3c441c03	0.011969569
56	0xbdf2be38	-0.118526876
57	0xbd96cab4	-0.07362881
58	0x3b861aeb	0.0040925643
59	0x3da6127a	0.08108993
60	0x3e5272ba	0.20551577
61	0x3e258ecb	0.16167752
62	0xbe043a19	-0.12912787
63	0x3d1e2966	0.0386137
64	0x3e39a613	0.18129759
65	0x3e2e61c5	0.17029484
66	0x3dd08512	0.10181631
67	0xbbc365c3	-0.0059630587
68	0x3aae29fd	0.001328766
69	0x3e16f538	0.14741981
70	0xbe3e0eb0	-0.1856029
71	0x3e51642d	0.2044837
72	0xbdd79bd0	-0.10527766
73	0x3d552fef	0.052047666
74	0x3d48b32d	0.048999
75	0x3dac7a87	0.08421808
76	0x3df9b38d	0.1219245
77	0xbdcdd020	-0.10049462
78	0x3e2927d2	0.16519096
79	0xbe0643a8	-0.13111746
80	0xbd27c4a7	-0.040959027
81	0x3c000d50	0.007815674
82	0xbe180225	-0.14844568
83	0x3da9d733	0.08292999
84	0xbca10f0b	-0.019660493
85	0x3dbbb6f9	0.09165759
86	0x3db2508c	0.08706769
87	0xbd943818	-0.072372615
88	0xbddd1bc2	-0.1079631
89	0xbe0c2c76	-0.13688836
90	0x3e348926	0.17630443
91	0xbcf277b0	-0.029598087
92	0xbe4857d2	-0.19564751
93	0xbd98b4ab	-0.07456335
94	0xbe1d857a	-0.15382949
95	0xbca95fca	-0.020675559
96	0x3e1f1be3	0.15537982
97	0xbcdcbd79	-0.026945816
98	0x3d87372f	0.06602322
99	0x3e2504f5	0.16115172
100	0xbd1bf725	-0.038077492
101	0x3d9ced79	0.07662482
102	0x3e38da3a	0.18051997
103	0x3e2648bc	0.16238683
104	0xbdb232e9	-0.087011166
105	0xbd7949ad	-0.06086128
106	0xbd651d56	-0.05593618
107	0xbe2ac32c	-0.16676015
108	0xbde6e3fa	-0.11273952
109	0xbdeafd59	-0.114741035
110	0x3dbb99cf	0.09160196
111	0xbca17b40	-0.01971209
112	0xbd83cddf	-0.06435751
113	0xbe0a330c	-0.13496035
114	0xbe35fd1a	-0.17772332
115	0xbcd6654a	-0.026171345
116	0x3e02be6b	0.12767951
117	0x3d9b3fdb	0.07580539
118	0xbdcb97da	-0.09941073
119	0xbe42587d	-0.18979068
120	0xbe246b00	-0.16056442
121	0x3e35af59	0.17742671
122	0x3da5170a	0.08061035
123	0xbe29004c	-0.1650402
124	0xbe317c8a	-0.17332664
125	0x3dfedeba	0.124448255
126	0x3e1e424b	0.15454976
127	0x3e14aeec	0.14519852
128	0xbe3bf930	-0.18356776
129	0x3e4ec706	0.20193109
130	0x3e0e17b4	0.1387623
131	0xbd26827e	-0.04065179
132	0xbc83c1c6	-0.01608361
133	0x3e1c1b41	0.15244772
134	0xbe03c9af	-0.12869905
135	0xbcd890a7	-0.026436163
136	0x3d6830eb	0.056687277
137	0xbe3c1b74	-0.18369848
138	0x3dbbc0bf	0.09167623
139	0xbdcf55fe	-0.101238236
140	0xbe3659a7	-0.17807637
141	0xbcb00fbe	-0.021491881
142	0x3e127bbd	0.14305015
143	0xbe40bbef	-0.18821691
144	0xbdf7a6ff	-0.12092399
145	0x3e416308	0.18885434
146	0x3e759ffa	0.23986807
147	0x3dbc83a6	0.092047974
148	0x3d0ffaf5	0.03515144
149	0x3e2e00a6	0.16992435
150	0x3e035b9d	0.12827916
151	0x3e5f3fef	0.21801732
152	0xbe4db777	-0.20089518
153	0xbdc7576a	-0.0973347
154	0x3e0d0996	0.13773188
155	0xbd2a472a	-0.041571774
156	0xbe677392	-0.2260268
157	0x3de343d5	0.11096922
158	0x3e27ac2c	0.16374272
159	0xbb4351dc	-0.002980343
160	0x3d37529a	0.04475651
161	0xbe30437d	-0.17213245
162	0xbddb7d09	-0.10717208
163	0xbdd434ea	-0.10361655
164	0xbca4b392	-0.020105157
165	0xbe15b60d	-0.14620228
166	0xbe3ec8e2	-0.18631318
167	0x3dc6b369	0.097021885
168	0xbe0fc562	-0.1404014
169	0xbd1ca28d	-0.038240958
170	0xbddc0b5d	-0.10744355
171	0xbe18ffbb	-0.14941303
172	0xbe3cc6ea	-0.18435255
173	0xbe254c86	-0.16142473
174	0x3c505542	0.01271564
175	0x3d89cbc7	0.067283206
176	0xbe0b271c	-0.13589138
177	0x3dbb8bc4	0.091575176
178	0xbe0b82ff	-0.1362419
179	0x3d4fe2e6	0.050753497
180	0xbdfe3fb4	-0.12414494
181	0x3cdc655e	0.026903804
182	0xbe177a38	-0.14792717
183	0xbe43e7e8	-0.19131434
184	0x3e59c214	0.21265441
185	0x3e02dd52	0.1277974
186	0x3da8e565	0.082468785
187	0x3e1ccfb4	0.15313607
188	0x3b3f284f	0.0029168313
189	0xbe51f217	-0.20502506
190	0x38fc8b65	0.00012042261
191	0xbd90d3e9	-0.07071669
192	0xbdfd720e	-0.1237527
193	0xbd9c02fc	-0.07617757
194	0xbd928fc7	-0.071563296
195	0xbd1a6a96	-0.037699305
196	0xbcb663ef	-0.022264449
197	0xbb47afab	-0.0030469697
198	0x3e3c9e47	0.18419753
199	0x3d0a733c	0.033801302
200	0x3d918203	0.07104876
201	0xbe2224ea	-0.15834394
202	0x3e329db2	0.17442968
203	0x3dad4515	0.08460442
204	0xbdff9b15	-0.124807514
205	0xbd51fb17	-0.05126485
206	0x3d324f22	0.0435325
207	0x3e49da3d	0.19712158
208	0x3dab00fb	0.083497964
209	0xbd20199e	-0.03908693
210	0xbe2797a1	-0.16366436
211	0xbd98bcb8	-0.0745787
212	0x3db93ab9	0.090444036
213	0xbe2843b3	-0.16432075
214	0xbe434a44	-0.19071299
215	0x3e2aa9b9	0.16666307
216	0xbc8de6bf	-0.017321942
217	0xbe3ba90f	-0.1832621
218	0x9f8343e8	-5.5593e-20
219	0xbe02cbf8	-0.1277312
220	0x3e3692ec	0.17829484
221	0xbde4c23e	-0.11169861
222	0xbcb329e5	-0.021870563
223	0x9f975402	-6.408997e-20
224	0x3d902e1c	0.07040045
225	0x3e320089	0.17383017
226	0xbe0f02c4	-0.13965899
227	0xbc637b45	-0.01388437
228	0xbc108b3e	-0.00882226
229	0xbdf07c67	-0.11742478
230	0x3e53e164	0.20691448
231	0xbe218b41	-0.15775777
232	0x3e301409	0.17195143
233	0xbe1ec39f	-0.15504311
234	0x3dc80283	0.09766104
235	0x3d90ebab	0.070762
236	0xbdfe2ffa	-0.124114946
237	0x3e15ed66	0.14641342
238	0x3cee88fb	0.029118052
239	0xbcbb2464	-0.0228445
240	0x3cd18099	0.025574015
241	0x3d902ebf	0.07040166
242	0xbd549232	-0.051897235
243	0x3d152bbc	0.03641866
244	0xbdd57878	-0.10423368
245	0xbd1279cf	-0.035760697
246	0x3df4bf5a	0.1195056
247	0x3e19625e	0.1497893
248	0x3c9ba38a	0.01899888
249	0x3e247994	0.16062003
250	0xbd685d6f	-0.05672973
251	0x3d4df8bd	0.050286043
252	0x3da2bdb2	0.07946338
253	0x3e11b740	0.1423006
254	0xbd9378e3	-0.07200792
255	0xbdba4d0c	-0.09096727

l1.weight f4 [256, 256]
0	0xbda2dd24	-0.079523355
1	0x3de4b111	0.11166585
2	0x3e14bf48	0.14526093
3	0x3c56cfd5	0.013111074
4	0xbdfc731e	-0.12326644
5	0x3d9e159a	0.07718964
6	0x3dddadf4	0.108241946
7	0x3d302f7c	0.043014035
8	0xbd2026fa	-0.03909967
9	0x3df50705	0.119642295
10	0x3da3adba	0.0799212
11	0x3cb50438	0.022096738
12	0x3dc5342b	0.09629091
13	0x3dcaa984	0.09895614
14	0xbbaa7b5a	-0.005202693
15	0xbdc92371	-0.09821213
16	0x3dbc63d5	0.09198729
17	0x3d20b19c	0.03923188
18	0xbde95947	-0.113939814
19	0xbd82a8ba	-0.06379838
20	0xbd99d008	-0.07510382
21	0xbcc25714	-0.023723163
22	0x3dbb6efa	0.091520265
23	0xbdeeb5a8	-0.11655742
24	0x3dc14022	0.094360605
25	0x3dd15fe2	0.10223366
26	0x3cbc51e0	0.02298826
27	0x3d804544	0.06263211
28	0x3e1ed077	0.1550921
29	0xbded264e	-0.11579572
30	0xbdd049ef	-0.10170352
31	0x3d8a135d	0.067419745
32	0xbd197812	-0.037468024
33	0x3d2f38b6	0.042778693
34	0xbd77cd23	-0.060498368
35	0x3dd7d9a0	0.105395555
36	0x3d80e6c4	0.06294015
37	0x3df16429	0.11786682
38	0xbe1c8c01	-0.15287782
39	0xbe09dcdc	-0.13463157
40	0xbd727073	-0.05918927
41	0xbdac95d6	-0.084270164
42	0x3dee26cc	0.11628494
43	0xbdb9100d	-0.090362646
44	0xbd13680e	-0.035987906
45	0xbc9a69b5	-0.018849233
46	0x3d659c37	0.05605718
47	0x3df288ef	0.11842524
48	0xbd6ad38b	-0.05733065
49	0xbdba069d	-0.09083293
50	0x3de9e2cd	0.11420212
51	0x3dbe9ca0	0.093072176
52	0x3b4ba109	0.0031071326
53	0xbd7ddfa7	-0.06198087
54	0xbcf3d9de	-0.029766973
55	0xbdcd460a	-0.100231245
56	0x384336ee	4.654278e-05
57	0xbdce9d3a	-0.10088582
58	0xbdd74870	-0.10511863
59	0xbd2c1eb6	-0.042021476
60	0x3c09a3f4	0.008400906
61	0xbe02a4d3	-0.12758188
62	0x3c54c80d	0.012987149
63	0xbdada0fe	-0.084779724
64	0xbdc424e9	-0.095773526
65	0xbcb0459a	-0.021517564
66	0xbd72275b	-0.059119564
67	0x3dc5246b	0.09626087
68	0xbcab77c2	-0.020931128
69	0xbdf61722	-0.12016131
70	0xbe311a87	-0.17295276
71	0x3e108ab9	0.14115418
72	0x3db10bff	0.08644866
73	0x3d8a1b5d	0.067435004
74	0xbd307a73	-0.043085527
75	0xbd10ae4c	-0.035322472
76	0x3ccf098c	0.025273107
77	0xbdbc14f1	-0.09183682
78	0xbe111d26	-0.14171275
79	0x3df45f9a	0.11932297
80	0x3de6c864	0.1126869
81	0x3da104f5	0.078622736
82	0xbcba947d	-0.022775883
83	0x3d0427bc	0.032264456
84	0x3da6610c	0.08123979
85	0xbdaac0a9	-0.08337528
86	0xbdfa862b	-0.12232622
87	0x3dc8c508	0.09803206
88	0xbdaba50e	-0.08381091
89	0xbd373328	-0.04472652
90	0xbc8e06ca	-0.017337222
91	0xbd4f2e8f	-0.05058151
92	0x3e095714	0.13412124
93	0xbcb53d60	-0.022123992
94	0xbc833b04	-0.016019352
95	0xbdf281dc	-0.11841175
96	0xbdff8c24	-0.124779016
97	0xbc3b0a17	-0.01141598
98	0xbd39effa	-0.045394875
99	0x3d9b069e	0.075696215
100	0x3d94eecd	0.0727211
101	0x3d042046	0.03225734
102	0xbdd27e3b	-0.10277983
103	0xbda0b5f3	-0.07847204
104	0xbdac09ce	-0.084003076
105	0x3def92d3	0.11697926
106	0xbd2b1033	-0.041763496
107	0xbd414502	-0.04718495
108	0xbd36f9a5	-0.044671673
109	0xbb6d4190	-0.0036202408
110	0x3e1ac54f	0.1511433
111	0x3dc3ee57	0.09566944
112	0xbd310875	-0.043220956
113	0xbcc6b4c5	-0.02425612
114	0x3bb4111d	0.005495204
115	0xbe011fac	-0.12609738
116	0x3cfe0624	0.031008787
117	0x3e1a053d	0.15041061
118	0x3e1091a8	0.14118063
119	0xbdffbdaa	-0.124873474
120	0x3dcb7633	0.09934654
121	0x3dd14f8b	0.1022025
122	0x3db59a80	0.08867359
123	0xbd8f383b	-0.06993147
124	0x3daad26a	0.083409145
125	0x3da2e600	0.07954025
126	0xbdffa406	-0.12482457
127	0x3dfd1dbb	0.12359186
128	0xbdd3a4af	-0.10334145
129	0xbd06a920	-0.032876134
130	0x3d28c724	0.04120554
131	0xbd50cd89	-0.050977264
132	0x3d8789f4	0.06618109
133	0x3e18712e	0.14886925
134	0x3e009ede	0.12560603
135	0xbdef92f5	-0.11697952
136	0x3d201feb	0.03909294
137	0x3da48921	0.08033968
138	0x3d0e8285	0.034792442
139	0xbdbae007	-0.09124761
140	0x3d6dc7b2	0.058051772
141	0x3d3c4d1d	0.04597198
142	0xbd685a23	-0.056726586
143	0xbe031900	-0.12802505
144	0x3dffa8af	0.12483346
145	0xbdf5c14a	-0.119997576
146	0xbd3f1e84	-0.04665996
147	0xbda12e2f	-0.07870137
148	0xbd642c8c	-0.055706546
149	0xbda93aa1	-0.08263136
150	0x3d12cacf	0.035837945
151	0x3dd5058d	0.10401449
152	0xbc87a552	-0.016558323
153	0xbc872ddf	-0.016501365
154	0x3dcd41f9	0.10022349
155	0x3daf5d79	0.0856275
156	0xbdc2590f	-0.09489643
157	0x3ce3f466	0.0278265
158	0x3df9ab55	0.12190882
159	0xbd7d2ee7	-0.061812308
160	0xbd7f1bf9	-0.062282536
161	0x3ddcd805	0.1078339
162	0xbd87204c	-0.06597957
163	0xbbfe6fc0	-0.0077647865
164	0x3d6f07a1	0.058356885
165	0xbdc3dfc1	-0.09564162
166	0x3d8a4260	0.06750941
167	0x3e0cad95	0.13738091
168	0x3d8cc3c1	0.068732746
169	0x3c28bab8	0.0102984235
170	0xbd0afe12	-0.033933707
171	0xbc4b15d5	-0.012395342
172	0xbe0c468a	-0.13698784
173	0xbddb0d5f	-0.1069591
174	0x3d581a51	0.052759472
175	0x3ce573cc	0.028009318
176	0xbdcb3988	-0.099230826
177	0xbdad84d1	-0.08472598
178	0xbdcc5cd1	-0.09978641
179	0xbdc956ee	-0.09831034
180	0xbbc422c1	-0.0059855883
181	0xbdcfa01a	-0.10137959
182	0x3da3ff16	0.08007638
183	0xbdecb9a7	-0.11558848
184	0xbdf628f0	-0.12019527
185	0xbc360cbd	-0.0111114355
186	0xbcc989d9	-0.024601864
187	0x3da8db9c	0.08245012
188	0x3dcd9dd8	0.10039872
189	0x3d210bef	0.03931802
190	0x3d4b2df0	0.049604356
191	0x3cbbfa5f	0.022946535
192	0x3e1d1159	0.15338649
193	0x3da45e0d	0.08025751
194	0x3cbc223d	0.022965545
195	0xbd6024f4	-0.05472274
196	0xbdc932c3	-0.09824135
197	0x3d618581	0.05505896
198	0x3d879c4a	0.06621607
199	0xbc32a14b	-0.010902713
200	0x3dcbc042	0.0994878
201	0xbe027683	-0.12740521
202	0xbd5d540c	-0.05403523
203	0xbdbc66a5	-0.091992654
204	0x3e0e6b70	0.13908172
205	0x3d8f2bf2	0.06990804
206	0x3c53faf6	0.012938252
207	0xbda4b0e2	-0.0804155
208	0xbd0ca23a	-0.0343344
209	0x3d8eb1dd	0.069675185
210	0xbdb13736	-0.08653109
211	0xbdc70e3c	-0.09719512
212	0x3daa7a9e	0.083241686
213	0xbcf3001b	-0.029663136
214	0xbd241cd7	-0.040066566
215	0x3d5c2286	0.05374386
216	0x3da80442	0.08203937
217	0xbd31ec25	-0.043438096
218	0xbce77b66	-0.028257083
219	0x3b2ff73a	0.002685024
220	0xbd77a071	-0.060455743
221	0xbdc32c2d	-0.0952991
222	0xbd9e7665	-0.07737426
223	0x3dcfdd22	0.101495996
224	0x3da681bc	0.081302136
225	0xbdad44de	-0.08460401
226	0xbdbebe9b	-0.09313699
227	0xbdb18c93	-0.086693905
228	0xbdb72b9c	-0.08943865
229	0x3c982714	0.018573321
230	0xbd852194	-0.06500545
231	0x3cbd3044	0.023094304
232	0x3bf12683	0.0073593273
233	0xbe064bc5	-0.13114841
234	0x3dfa61e9	0.12225706
235	0x3d9603c2	0.073249355
236	0xbd742a56	-0.059610687
237	0x3d876a53	0.066120766
238	0x3dfe66b6	0.12421934
239	0xbc05d844	-0.0081692375
240	0x3de5c83b	0.112198316
241	0x381dfa9c	3.7665115e-05
242	0xbddd09ec	-0.10792908
243	0xbd819253	-0.06326737
244	0x3da4795d	0.08030961
245	0x3ddef8f9	0.108873315
246	0x3e0caa30	0.13736796
247	0x3d1c887c	0.0382161
248	0x3dfe44ff	0.12415504
249	0x3df309b6	0.118670866
250	0x3de58559	0.11207075
251	0x3deedceb	0.116632305
252	0xbe0559e2	-0.13022569
253	0xbd9589b0	-0.073016524
254	0xbdad77a8	-0.08470088
255	0x3cea50f5	0.028603056

l1.bias f4 [256]
0	0x3e5a0742	0.21291831
1	0x3dfda13a	0.12384267
2	0x3e217143	0.15765862
3	0x3c66fb3a	0.014097983
4	0x3e36863a	0.17824641
5	0x3e6518f2	0.22372797
6	0x3e0432ce	0.12910005
7	0x3dc877d4	0.097884804
8	0x3dfae57e	0.122508034
9	0x3e063380	0.13105583
10	0x3d6deecf	0.058089074
11	0x3e0dc2fc	0.13843912
12	0x3e08c48b	0.13356225
13	0x3dfae630	0.12250936
14	0x3e22a718	0.15884054
15	0x3e19c6e2	0.15017274
16	0x3dfc2594	0.12311855
17	0x3db7f00a	0.08981331
18	0x3e5d89a7	0.21634541
19	0x3c955fc1	0.018234136
20	0x3e3bfbad	0.18357725
21	0x3df4424d	0.11926708
22	0x3d998834	0.07496682
23	0x3e293b29	0.16526474
24	0x3da3cb76	0.079977915
25	0x3e2284e0	0.15871
26	0x3da4b371	0.08042038
27	0x3d8b813c	0.06811759
28	0x3dbafcaa	0.09130223
29	0x3e0d7d75	0.1381739
30	0x3e33f468	0.17573702
31	0x3e0a29fb	0.13492577
32	0x3e3a364c	0.18184775
33	0x3e1be011	0.15222193
34	0x3e587798	0.21139371
35	0x3dede39d	0.116156794
36	0x3deae905	0.11470226
37	0x3e602818	0.21890295
38	0x3db957dd	0.09049962
39	0x3e829be7	0.2550957
40	0x3daff210	0.08591092
41	0x3db86794	0.09004131
42	0x3dd564e7	0.10419636
43	0x3dd56956	0.10420482
44	0x3e112670	0.14174819
45	0x3dc0c003	0.09411623
46	0x3e4cf5e1	0.2001567
47	0x3e250028	0.16113341
48	0x3bc98f19	0.006151092
49	0x3dfb1c38	0.12261242
50	0x3e1db850	0.15402341
51	0x3e4a87d1	0.19778372
52	0x3d2239ad	0.039605785
53	0x3e065c33	0.13121109
54	0x3dc4fb3a	0.0961823
55	0x3d9abb41	0.07555247
56	0x3e01cf93	0.1267684
57	0x3dc02dae	0.09383713
58	0x3df7910b	0.120882116
59	0x3e0b2976	0.13590035
60	0x3e05074a	0.12991062
61	0x3e0e0fe4	0.1387325
62	0x3e13bebe	0.14428231
63	0x3ce8630b	0.02836754
64	0x3df9d661	0.12199093
65	0x3e0a7fb1	0.13525273
66	0x3e0022f0	0.12513328
67	0x3d7c9185	0.061662216
68	0x3e1d5f37	0.15368353
69	0x3e28884f	0.16458248
70	0x3d68177a	0.056663014
71	0x3e188f3c	0.1489839
72	0x3e28e3af	0.16493104
73	0x3e0a001f	0.13476609
74	0x3e1d4c9a	0.15361252
75	0x3dceb9ff	0.1009407
76	0x3de9dcf0	0.114190936
77	0x3e17e827	0.14834653
78	0x3e765f29	0.24059738
79	0x3e5fe2d2	0.21863869
80	0x3e02d65b	0.12777083
81	0x3d97147b	0.07376953
82	0x3e26cdb1	0.16289403
83	0x3df2a59a	0.11847992
84	0x3e26212f	0.16223596
85	0x3e0b3b53	0.13596849
86	0x3c47c369	0.0121925855
87	0x3e187e6f	0.1489198
88	0x3e14ee26	0.14543971
89	0x3e5d6881	0.21621896
90	0x3e3a8ac3	0.18216996
91	0x3de2b0cb	0.11068877
92	0x3ded729b	0.11594125
93	0x3e23c94d	0.15994759
94	0x3e5c0e22	0.21489766
95	0x3da138c7	0.078721575
96	0x3dfe5bf7	0.12419885
97	0x3e14cc46	0.14531049
98	0x3df20359	0.11817045
99	0x3db9b321	0.09067369
100	0x3de0641b	0.109565936
101	0x3af89fad	0.0018968486
102	0x3e02deef	0.12780355
103	0x3e092510	0.13393044
104	0x3e336593	0.17519216
105	0x3dceb71d	0.1009352
106	0x3d7e8abd	0.06214403
107	0x3e6df0c4	0.23236376
108	0x3e334814	0.17507964
109	0x3cde72fe	0.027154442
110	0x3e2a10b4	0.16607934
111	0x3e11c7a4	0.14236313
112	0x3e44ae9c	0.19207233
113	0x3d90f6b8	0.07078308
114	0x3e18e4d7	0.14931045
115	0x3e4a6aff	0.19767378
116	0x3e1500e5	0.14551122
117	0x3e6187eb	0.22024505
118	0x3e268dea	0.16265073
119	0x3dd4c9cc	0.10390052
120	0x3e51d999	0.20493163
121	0x3e37ce27	0.17949735
122	0x3e0be979	0.13663282
123	0x3b3863d6	0.0028135679
124	0x3e503cb8	0.20335662
125	0x3e161ce3	0.14659457
126	0x3e52f2c6	0.20600423
127	0x3e0e2890	0.13882661
128	0x3e5e4189	0.21704687
129	0x3ddbefbd	0.10739086
130	0x3e33781d	0.17526288
131	0x3e03a7c4	0.12856966
132	0x3e4744f7	0.19459902
133	0x3e279dfb	0.16368859
134	0x3e1ede14	0.15514404
135	0x3df540a2	0.11975218
136	0x3e00edcd	0.12590714
137	0x3ddfc068	0.109253705
138	0x3d1b2e7a	0.03788612
139	0x3d8ceef4	0.06881514
140	0x3e6348c1	0.22195722
141	0x3d707980	0.05870962
142	0x3e08fd39	0.13377847
143	0x3dfdf911	0.12401021
144	0x3e1b050b	0.15138642
145	0x3dc17c33	0.09447517
146	0x3e2c2f6f	0.1681497
147	0x3e2c4c52	0.16825989
148	0x3e429926	0.19003734
149	0x3e2a7aa8	0.16648352
150	0x3e19fa88	0.15036976
151	0x3b0780b1	0.0020676071
152	0x3de8dd8f	0.11370384
153	0x3e13eeef	0.14446615
154	0x3e088610	0.13332391
155	0x3e033217	0.12812077
156	0x3e1a8cfa	0.15092841
157	0x3e328861	0.17434837
158	0x3d8a1a9e	0.06743358
159	0x3e04b902	0.129612
160	0x3e12fd0d	0.14354344
161	0x3da5b9fd	0.08092115
162	0x3e6ef95e	0.23337314
163	0x3d743f33	0.059630584
164	0x3e64f208	0.22357953
165	0x3e1b1184	0.151434
166	0x3af6f574	0.0018841461
167	0x3e114753	0.14187364
168	0x3c419761	0.011815877
169	0x3d329ca5	0.04360642
170	0x3db9b56e	0.09067808
171	0x3d066940	0.032815218
172	0x3d1f9b79	0.03896663
173	0x3e14af93	0.14520101
174	0x3dfa7846	0.122299716
175	0x3d83aeb8	0.06429809
176	0x3e26f07a	0.16302672
177	0x3e353028	0.17694151
178	0x3e1b91d9	0.15192355
179	0x3e4810ea	0.19537702
180	0x3c13adbf	0.009013592
181	0x3d99d7fb	0.07511898
182	0x3e459397	0.19294582
183	0x3e64281a	0.22280923
184	0x3e144d74	0.14482671
185	0x3e582139	0.21106423
186	0x3d963060	0.073334455
187	0x3e3b3e58	0.18285501
188	0x3e0148df	0.12625454
189	0x3e1a8994	0.15091544
190	0x3dfadbf4	0.12248984
191	0x3e3e535f	0.18586491
192	0x3d004783	0.0313182
193	0x3e56f27d	0.2099094
194	0x3dee5605	0.11637501
195	0x3e244177	0.16040598
196	0x3d941ec4	0.072324306
197	0x3dfc1525	0.123087205
198	0x3d350d90	0.044202387
199	0x3e3c2a7e	0.18375584
200	0x3e384607	0.17995463
201	0x3e172460	0.1475997
202	0x3dbf0c60	0.09328532
203	0x3c6c5750	0.014425114
204	0x3c03b866	0.0080395695
205	0x3d0924d2	0.03348238
206	0x3e0cde82	0.13756755
207	0x3e0c869f	0.13723229
208	0x3e146963	0.14493327
209	0x3e5fcb27	0.2185484
210	0x3e289466	0.1646286
211	0x3e056646	0.13027295
212	0x3e1e1fae	0.15441772
213	0x3e050357	0.12989555
214	0x3e0cbe8e	0.13744566
215	0x3c15f5ad	0.009152812
216	0x3db038fe	0.086046204
217	0x3e1fe73b	0.15615551
218	0x3d955b4c	0.07292804
219	0x3dcf4c31	0.10121954
220	0x3ddf6816	0.10908525
221	0x3e23fd73	0.16014652
222	0x3e17d058	0.1482557
223	0x3dfdb28b	0.1238757
224	0x3e09f53a	0.13472453
225	0x3e10b117	0.14130054
226	0x3e51d62a	0.20491853
227	0x3e23d4e9	0.15999188
228	0x3e414646	0.18874463
229	0x3df3bfdd	0.119018294
230	0x3d957ff2	0.07299794
231	0x3d8b23b6	0.06793921
232	0x3e2b9725	0.16756876
233	0x3e512992	0.20426014
234	0x3decc99b	0.11561891
235	0x3e2d968e	0.16951963
236	0x3e055263	0.1301971
237	0x3e15920a	0.1460649
238	0x3e28fd2a	0.16502824
239	0x3e270d3e	0.16313645
240	0x3de1c8be	0.11024617
241	0x3b736ba4	0.0037143016
242	0x3cc75230	0.024331182
243	0x3bac5ce4	0.005260097
244	0x3e14522e	0.14484474
245	0x3e52b655	0.20577367
246	0x3e144e24	0.14482933
247	0x3e48b110	0.19598794
248	0x3dd5c295	0.10437504
249	0x3e53e71f	0.20693634
250	0x3e105e99	0.14098586
251	0x3e566c9f	0.20939873
252	0x3d106dff	0.03526115
253	0x3e18e90a	0.14932647
254	0x3e1a3593	0.150595
255	0x3dddbb0f	0.10826694

l2.weight f4 [256, 256]
0	0xbd998d04	-0.074976
1	0x3d31f15f	0.04344308
2	0xbc0d99ef	-0.008642658
3	0x3b9ab158	0.004720848
4	0x3da526ab	0.08064016
5	0x3deedca3	0.11663177
6	0xbcbf7922	-0.02337319
7	0x3d6102f6	0.054934464
8	0x3d85c91f	0.065325014
9	0xbce2ef38	-0.027701959
10	0x3ceb3936	0.028713804
11	0xbdbb5da2	-0.091487184
12	0xbc5259c9	-0.012838789
13	0x3cf807b2	0.030277107
14	0xbc1319c9	-0.008978316
15	0xbd4c988f	-0.04995018
16	0xbd6baef8	-0.05753991
17	0x3d1d6ee1	0.03843582
18	0x3e173abe	0.14768502
19	0x3bbcd62e	0.005762837
20	0xbdc1208e	-0.094300374
21	0x3d9c7e09	0.07641227
22	0x3ced8fae	0.028999176
23	0x3df23935	0.118273176
24	0x3cc1ab98	0.023641393
25	0xbbe2a2bb	-0.0069163716
26	0x3cd4c049	0.025970595
27	0x3d15e4a6	0.03659501
28	0xbc6b7b7c	-0.014372703
29	0xbbca6fa1	-0.006177858
30	0x3dc388f9	0.0954761
31	0xbd402b7c	-0.04691647
32	0x3cb52b2b	0.02211531
33	0x3d4c118c	0.04982142
34	0xbdc801a1	-0.09765936
35	0xbcda077d	-0.026614899
36	0x3d130e76	0.035902463
37	0x3d54dede	0.051970355
38	0x3d126c10	0.035747588
39	0xbc9c022d	-0.019044006
40	0xbc063069	-0.008190253
41	0xbbc3c1a4	-0.0059740115
42	0x3cc53e8e	0.02407768
43	0xbbb1e835	-0.0054292926
44	0x3d830edb	0.06399318
45	0x3d15023b	0.03637908
46	0xbcbcb250	-0.023034245
47	0x3ce8a903	0.028400904
48	0xba565bc7	-0.0008177128
49	0x3cadf7a1	0.021236243
50	0xbd996b48	-0.074911654
51	0x3e065969	0.13120045
52	0xbb6da5b3	-0.0036262095
53	0xbbbe8b65	-0.005814957
54	0x3d2bcd0a	0.041943587
55	0xbbe4ceb6	-0.0069826497
56	0x3c4c2928	0.012460984
57	0xbc53ee2a	-0.012935201
58	0xbd09df16	-0.033660017
59	0x3d9e5317	0.07730692
60	0xbd57f41d	-0.05272304
61	0x3b121ebe	0.0022296156
62	0xbce30f80	-0.027717352
63	0x3b1381f1	0.002250787
64	0x3dcf723f	0.101292126
65	0xbd8d6d8f	-0.06905662
66	0xbd68120d	-0.05665784
67	0x3da78706	0.081800506
68	0x3e0eadf3	0.13933544
69	0x3ce0a466	0.027422141
70	0xbb94a53f	-0.0045363004
71	0x3ccfe626	0.025378298
72	0xbb9375a1	-0.0045001064
73	0xbce31dd7	-0.02772419
74	0xbccb8f25	-0.02484853
75	0x3ccac29a	0.024750996
76	0x3cc3fd35	0.02392445
77	0x3c7742bf	0.015091597
78	0x3df47b9c	0.11937639
79	0xbd4fdc0d	-0.050746966
80	0xbcd15615	-0.025553742
81	0xbc1166f4	-0.008874644
82	0x3dbe1b9f	0.09282612
83	0x3b5bfb5f	0.0033566577
84	0x3d9a58ae	0.075364456
85	0x3c4bcb5c	0.012438621
86	0xba89b419	-0.0010505944
87	0x3dd71a2d	0.105030395
88	0xbd1fdd2c	-0.039029285
89	0xbdc82652	-0.09772934
90	0xbcd3d366	-0.025857639
91	0x3d167c29	0.036739502
92	0xbda7c222	-0.08191325
93	0x3d7f20d4	0.062287167
94	0xbd9b2c6e	-0.07576834
95	0x3bdefc50	0.0068049803
96	0xbdafbf07	-0.085813574
97	0xbd05bad7	-0.032648887
98	0x3c574281	0.013138414
99	0x3cfcdd45	0.030867228
100	0x3d505492	0.050861903
101	0x39b92235	0.00035311436
102	0xbdc6be98	-0.097043216
103	0xbdc13914	-0.09434715
104	0xbdc48953	-0.09596505
105	0xbc8af297	-0.016961379
106	0x3cf55ad2	0.029950533
107	0x3e21c7a7	0.15798818
108	0xbdcc1b73	-0.09966173
109	0x3b10b20c	0.002207878
110	0xbd6283b5	-0.055301387
111	0xbcb2d309	-0.021829145
112	0x3d377b9e	0.044795625
113	0xbc378c14	-0.011202831
114	0x3d753e5d	0.059873927
115	0xbd0515bb	-0.032491427
116	0x3cc2b050	0.023765713
117	0x3de2770f	0.11057865
118	0x3de1bd64	0.110224515
119	0xbd4866bd	-0.048926104
120	0x3d8ca59f	0.06867527
121	0xbd5060aa	-0.050873436
122	0x3c407608	0.011746891
123	0x3a4e4242	0.00078681496
124	0xbdb960c6	-0.09051661
125	0x3daf8de3	0.085719846
126	0x3e094ebc	0.13408941
127	0xbbf465fb	-0.007458446
128	0x3de67354	0.11252466
129	0xbd09f110	-0.03367716
130	0x3dd39e88	0.10332972
131	0x3d9bad60	0.07601428
132	0xbdc5f0b8	-0.09665054
133	0x3df7e909	0.12104995
134	0xbc905d3b	-0.01762258
135	0x3dc1d465	0.09464339
136	0x3d125626	0.03572669
137	0x3b8dbff7	0.0043258625
138	0xbc47bc3a	-0.012190873
139	0xbc13c730	-0.009019658
140	0x3e1b86cf	0.15188144
141	0x3cddc409	0.027071016
142	0xbbcd5eec	-0.006267419
143	0x3d13f13b	0.036118727
144	0xbd0318e8	-0.032006174
145	0x3ddb4194	0.107058674
146	0x3d6b5436	0.057453357
147	0x3bd50704	0.0065010805
148	0x3db6d710	0.08927739
149	0x3d845a56	0.06462543
150	0xbc97a57f	-0.018511532
151	0x398667a4	0.0002563569
152	0x3c8f282f	0.017475216
153	0xbdbc7b72	-0.09203233
154	0xbd842372	-0.06452073
155	0x3c9b59b3	0.01896367
156	0x3d455d37	0.0481846
157	0x3d9b9be7	0.075980954
158	0xbc167457	-0.009183011
159	0xbcc16ff9	-0.023612963
160	0xbbc710d5	-0.0060750046
161	0x3d0c6c74	0.034283116
162	0x3d10b3bc	0.035327658
163	0xbbed635c	-0.0072445106
164	0xbd81d482	-0.06339361
165	0x3da1442f	0.07874333
166	0x39c98b48	0.0003844148
167	0x3d55865c	0.05213009
168	0x3abd511c	0.0014443728
169	0xbc66f5ea	-0.014096716
170	0x3cde93fe	0.027170178
171	0xbbc562e9	-0.006023754
172	0xbb87644f	-0.0041318308
173	0xbc2ae09d	-0.010429529
174	0x3c4f3948	0.012647934
175	0x3d344639	0.044012282
176	0x3dd0cef8	0.10195726
177	0x3c906b7b	0.017629376
178	0x3e034034	0.1281746
179	0x3dbe85c6	0.09302859
180	0x3a902f74	0.001100047
181	0xbc048395	-0.008088012
182	0xbc5c8458	-0.013459288
183	0xbc04e76d	-0.008111817
184	0x3b2984de	0.0025866549
185	0x3db35d73	0.087580584
186	0xbb8aa057	-0.00423054
187	0x3e019829	0.126557
188	0xbc896385	-0.016771087
189	0xbddb53ab	-0.10709318
190	0xbc872ed5	-0.016501823
191	0x3ce182ce	0.027528193
192	0x3c0a174a	0.008428404
193	0x3c0bab47	0.008524722
194	0xbd96eda0	-0.07369542
195	0x3d6eb000	0.058273315
196	0x3ceffff7	0.029296858
197	0xbd7f2350	-0.062289536
198	0xbbc5aa9c	-0.006032301
199	0x3d659ad5	0.056055862
200	0x3d3c96b0	0.046042144
201	0x3d340afd	0.04395579
202	0x3d3efd5b	0.046628337
203	0xba8d1094	-0.0010762387
204	0xba941424	-0.0011297506
205	0xbb74377f	-0.0037264524
206	0xbd14729a	-0.036242105
207	0x3a9b6ecf	0.0011858585
208	0xbc2da48e	-0.010598315
209	0xbdae47ab	-0.08509763
210	0x3d6f29c0	0.058389425
211	0xbdbb7935	-0.09153978
212	0x3cd334e6	0.02578206
213	0xbd35ba3c	-0.04436706
214	0x3de780f3	0.11303892
215	0x3ad16b12	0.0015977344
216	0x3d0dcb62	0.03461779
217	0x3d4ec27d	0.050478447
218	0x3ade0f61	0.0016941839
219	0xbca50229	-0.020142632
220	0x3ccc413a	0.024933446
221	0x3d6f54f0	0.058430612
222	0x3d001b34	0.031275943
223	0x3d17a285	0.037020225
224	0xbbdef51b	-0.006804121
225	0x3d1f005e	0.03881871
226	0xbd359f1b	-0.044341188
227	0x3dd740ec	0.1051043
228	0xba2fb1b9	-0.0006702203
229	0x3de0807a	0.10962005
230	0xbc2f76ee	-0.010709507
231	0x3d2c91db	0.042131286
232	0x3cf32991	0.029682906
233	0xbcc7235d	-0.024308855
234	0x3d9e81ef	0.077396266
235	0x3da92011	0.08258069
236	0x3de5d38a	0.112219885
237	0x3dd06caa	0.10176976
238	0xbd5be013	-0.05368049
239	0xbce08398	-0.027406499
240	0xbcbc71e4	-0.023003526
241	0xba2855d9	-0.00064214837
242	0x3af5bb80	0.0018747896
243	0xb859c85c	-5.192343e-05
244	0x3d8bab2f	0.0681976
245	0xbd9a2794	-0.0752708
246	0x3ddeecab	0.108849846
247	0x3de2491f	0.11049103
248	0xbbe00381	-0.006836355
249	0xbda84f9d	-0.0821831
250	0x3d580339	0.05273745
251	0x3dde8b03	0.10866358
252	0x3cd915e9	0.026499705
253	0x3d2243d4	0.039615467
254	0xbda3d772	-0.08000077
255	0xbc6df80a	-0.014524469

l2.bias f4 [256]
0	0x3d4ef740	0.050528765
1	0x3d86f212	0.0658914
2	0x3d31cae1	0.04340637
3	0x3d55b14c	0.052171037
4	0x3d79530f	0.060870226
5	0x3d5dad59	0.054120395
6	0x3d698688	0.057013065
7	0x3d76b14d	0.06022768
8	0x3d7ccbd1	0.061717812
9	0x3d415ac8	0.047205716
10	0x3d493c25	0.049129624
11	0x3d68b81d	0.05681621
12	0x3d6ee4bd	0.05832361
13	0x3d80137e	0.06253718
14	0x3d590743	0.05298544
15	0x3d4f3822	0.05059064
16	0x3d5eefc6	0.054427885
17	0x3d7579ec	0.059930727
18	0x3d073282	0.033007152
19	0x3d842759	0.064528175
20	0x3d623320	0.055224538
21	0x3d3fe59b	0.04684983
22	0x3d3e4a90	0.046457827
23	0x3d626f73	0.055282068
24	0x3d268b1e	0.040660016
25	0x3d6d7b0f	0.057978686
26	0x3d336ee9	0.043806944
27	0x3d8e8889	0.06959636
28	0x3d3d2128	0.0461742
29	0x3d654732	0.0559761
30	0x3d745485	0.059650917
31	0x3d6e70b2	0.058212943
32	0x3d80bdda	0.06286211
33	0x3d8d79dd	0.06908009
34	0x3d817f76	0.06323139
35	0x3d82f3f2	0.06394185
36	0x3d661899	0.056175802
37	0x3d5b613c	0.053559527
38	0x3d751ea8	0.05984369
39	0x3d5443ba	0.0518224
40	0x3d72642b	0.05917756
41	0x3d7861cd	0.060640145
42	0x3d967a99	0.073476024
43	0x3d4b29a1	0.049600247
44	0x3d8155d4	0.063151985
45	0x3d1f6bcb	0.03892116
46	0x3d760a23	0.06006826
47	0x3d6ff043	0.05857874
48	0x3d6ceaf1	0.057841245
49	0x3d5e9f67	0.054351237
50	0x3d86ae61	0.06576229
51	0x3d8061dd	0.06268666
52	0x3d63639e	0.055514924
53	0x3d74ca2e	0.059763126
54	0x3d512339	0.05105898
55	0x3d31e6dc	0.043433055
56	0x3d24471f	0.04010689
57	0x3d5aee79	0.05345008
58	0x3d67ff48	0.05663994
59	0x3d806a7d	0.06270311
60	0x3d872a66	0.06599884
61	0x3d59b884	0.053154483
62	0x3d866f95	0.06564251
63	0x3d815ffb	0.06317135
64	0x3d85198f	0.064990155
65	0x3d78de3c	0.060758814
66	0x3d66ee1a	0.056379415
67	0x3d83d664	0.06437376
68	0x3d68d8e8	0.056847483
69	0x3d71b1e3	0.059007537
70	0x3d7209fa	0.059091546
71	0x3d662eab	0.05619685
72	0x3d8675a6	0.065654084
73	0x3d90a21f	0.07062172
74	0x3d6fdc06	0.05855944
75	0x3d92cb18	0.07167643
76	0x3d59a78c	0.0531383
77	0x3d372b4d	0.04471903
78	0x3d36c667	0.044622805
79	0x3d4f07d3	0.05054457
80	0x3d86e975	0.06587497
81	0x3d3bd914	0.04586132
82	0x3d8cfab7	0.068837576
83	0x3d8eec1c	0.06978628
84	0x3d59282e	0.053016834
85	0x3d687d26	0.056759976
86	0x3d5d33c3	0.054004442
87	0x3d646df2	0.055768915
88	0x3d1dab41	0.0384934
89	0x3d489df1	0.04897875
90	0x3d8be9e2	0.06831719
91	0x3d833435	0.06406442
92	0x3d8dc804	0.069229156
93	0x3d4c8bfc	0.049938187
94	0x3d88eb44	0.06685498
95	0x3d3f4d82	0.046704777
96	0x3d5f9584	0.05458595
97	0x3d52e23a	0.051485278
98	0x3d5ad1a3	0.05342258
99	0x3d54d454	0.051960304
100	0x3d359c7a	0.04433868
101	0x3d4a6b15	0.049418528
102	0x3d68647a	0.056736447
103	0x3d7a7536	0.061146937
104	0x3d7e13c0	0.062030554
105	0x3d5b90c4	0.053604856
106	0x3d5ebe56	0.054380737
107	0x3d83ce83	0.06435873
108	0x3d66f88c	0.056389377
109	0x3d768350	0.060183823
110	0x3d807d5e	0.06273912
111	0x3d7ee6e9	0.06223193
112	0x3d7ce15e	0.061738364
113	0x3d821113	0.06350913
114	0x3d5326dd	0.051550735
115	0x3d5389c5	0.05164506
116	0x3d846edd	0.06466458
117	0x3d69c146	0.057069086
118	0x3d422452	0.04739792
119	0x3d838c5c	0.06423256
120	0x3d3e3ebd	0.04644655
121	0x3d8a2daa	0.06746991
122	0x3d721722	0.059104092
123	0x3d6815db	0.056661468
124	0x3d580042	0.05273462
125	0x3d849bd3	0.064750336
126	0x3d7a5b98	0.061122507
127	0x3d618d32	0.055066295
128	0x3d732fd2	0.059371777
129	0x3d73cda0	0.05952227
130	0x3d77679b	0.06040154
131	0x3d307764	0.04308261
132	0x3d61cb0f	0.055125292
133	0x3d802801	0.0625763
134	0x3d3c5fea	0.04598991
135	0x3d6c7bef	0.05773538
136	0x3d3d48b0	0.0462119
137	0x3d849567	0.06473809
138	0x3d86f8f7	0.06590455
139	0x3d4db79a	0.050223924
140	0x3d3a19e3	0.045434844
141	0x3d5daf52	0.054122277
142	0x3d61e4e9	0.055149946
143	0x3d4e4043	0.050354254
144	0x3d4f97f4	0.050682023
145	0x3d891116	0.06692712
146	0x3d91aadd	0.07112668
147	0x3d89e0a3	0.06732299
148	0x3d94b86e	0.0726174
149	0x3d88a85e	0.066727385
150	0x3d5d9354	0.05409558
151	0x3d77351a	0.060353376
152	0x3d62444b	0.05524091
153	0x3d621ed6	0.05520519
154	0x3d66b04c	0.056320474
155	0x3d6fa882	0.05851031
156	0x3d880ff8	0.06643671
157	0x3d86d951	0.065844186
158	0x3d903aec	0.070424885
159	0x3d8e1e69	0.06939394
160	0x3d2d0781	0.042243484
161	0x3d6259a1	0.055261258
162	0x3d80a0cf	0.06280672
163	0x3d85509f	0.06509518
164	0x3cfe672f	0.031055061
165	0x3d6b849a	0.057499506
166	0x3d6a53fd	0.057209004
167	0x3d85c6cf	0.0653206
168	0x3d8561ba	0.065127805
169	0x3d691d4b	0.0569127
170	0x3d7cc3d2	0.061710186
171	0x3d55468c	0.052069232
172	0x3d88f1a0	0.06686711
173	0x3d6f3322	0.058398373
174	0x3d440353	0.047854733
175	0x3d7ae633	0.06125469
176	0x3d5a90fc	0.053360924
177	0x3d623529	0.05522648
178	0x3d4ccfa3	0.050002705
179	0x3d43b330	0.04777831
180	0x3d52a99e	0.05143129
181	0x3d7e010a	0.06201271
182	0x3d5f17a7	0.054465916
183	0x3d7f45dc	0.062322482
184	0x3d7f9095	0.062393744
185	0x3d85b2a8	0.065282166
186	0x3d5eed8d	0.054425765
187	0x3d516350	0.051120102
188	0x3d54a161	0.051911715
189	0x3d8b87a3	0.0681298
190	0x3d4bc72f	0.049750503
191	0x3d6b1ad4	0.057398632
192	0x3d898b6f	0.06716048
193	0x3d34b12c	0.044114277
194	0x3d7cccbb	0.061718684
195	0x3d881601	0.06644822
196	0x3d5dea45	0.054178495
197	0x3d70b834	0.05876942
198	0x3d8b6dde	0.06808065
199	0x3d69e9f0	0.057107866
200	0x3d69822b	0.057008903
201	0x3d477524	0.0486957
202	0x3d61a3a5	0.055087704
203	0x3d42de14	0.04757507
204	0x3d7ae5f7	0.061254468
205	0x3d46d316	0.04854115
206	0x3d3f1095	0.046646673
207	0x3d827584	0.063700706
208	0x3d81c2ed	0.06336007
209	0x3d8f62e7	0.07001286
210	0x3d801c60	0.06255412
211	0x3d7dadb5	0.061933238
212	0x3d7bfbff	0.06151962
213	0x3d53bcb5	0.051693637
214	0x3d6e21ff	0.05813789
215	0x3d7e3e21	0.06207097
216	0x3d487182	0.048936374
217	0x3d7072dc	0.05870329
218	0xa0a19fe5	-2.738027e-19
219	0x3d8a0b14	0.06740394
220	0x3d8ab3c1	0.067725666
221	0x3d6cfe2d	0.05785959
222	0x3d76c9bd	0.060250986
223	0xa0ae7b2f	-2.9558263e-19
224	0x3d5918eb	0.05300228
225	0x3d42d328	0.047564656
226	0x3d8e83f4	0.06958762
227	0x3d629c40	0.055324793
228	0x3d37c871	0.04486889
229	0x3d769d33	0.06020851
230	0x3d82e79a	0.06391831
231	0x3d3c9469	0.046039972
232	0x3d6933fe	0.05693435
233	0x3d99f137	0.07516711
234	0x3d634814	0.05548866
235	0x3d520b64	0.051280394
236	0x3d613421	0.054981355
237	0x3d4ea55f	0.05045068
238	0x3d4c9ed1	0.049956147
239	0x3d74a06a	0.059723295
240	0x3d852a4f	0.0650221
241	0x3d34ad40	0.044110537
242	0x3d7f87cb	0.06238536
243	0x3d679132	0.056534953
244	0x3d682b39	0.056681845
245	0x3d4a031f	0.049319383
246	0x3d1d7504	0.038441673
247	0x3d532abd	0.05155443
248	0x3d5d6cd5	0.05405887
249	0x3d62f186	0.055406116
250	0x3d44c845	0.048042554
251	0x3d6ecdde	0.0583018
252	0x3d43018f	0.04760891
253	0x3d83822d	0.064213134
254	0x3d52c2a1	0.051455144
255	0x3d5cdb11	0.053919856
