code/save/model_7r4zst7evs.pt (torch, 355295 bytes, 4 tensors)

embed.weight f4 [59, 128]
000000 91 22 b2 be 53 f3 90 be 53 b1 40 be 91 a6 83 3e
       -0.34791997 -0.28310642 -0.18817644 0.25713018
000010 89 ac bf be f0 d1 87 3d 0b fa 66 3d d3 d3 95 be
       -0.3743632 0.06631839 0.056390803 -0.29263172
000020 13 8e a3 be d4 09 8e 3e 95 a5 33 3e a8 05 9d 3e
       -0.31944332 0.27741873 0.17543633 0.30668378
000030 44 f7 39 be 0b e9 80 3d 85 df 8e be f0 52 d6 be
       -0.1816073 0.062944494 -0.27904907 -0.4186015
000040 61 22 57 be 57 1b 47 be c5 f3 8a 3d e1 64 e9 3d
       -0.21009208 -0.19444023 0.067847766 0.11396194
000050 2a 66 3d bd fd b6 90 3e 9e c7 c6 3c ad 0d 75 be
       -0.04624001 0.2826461 0.024265107 -0.23930998
000060 86 8b cd bd d6 a1 8e 3e d6 d5 a3 bd a7 6e 7a be
       -0.100363776 0.27857846 -0.0799977 -0.24456273
000070 d2 7f 43 be 43 06 be 3e 49 f3 a7 3e 17 49 27 bd
       -0.19091728 0.37114152 0.328028 -0.04084119
000080 64 c7 10 be ef d0 1a be 2d 8e a9 3e 26 97 f1 bd
       -0.14138561 -0.15118764 0.33116284 -0.117964074
000090 25 ee af 3e 11 3d 9f 3e 9d d9 05 be 6f cd 48 be
       0.34361377 0.31101277 -0.13071294 -0.19609617
0000a0 94 3a 01 be 4e 80 a7 3e af 63 85 be c4 79 29 3e
       -0.12620002 0.32715076 -0.26052615 0.16550356
0000b0 9b 9e 85 3e be 96 bb 3e 6e 48 b8 bc 82 84 a7 3d
       0.2609757 0.36638445 -0.022495475 0.08179571
0000c0 4c 53 32 3e 82 11 2f be 1f 2a 16 bd fd 2a 94 3e
       0.17414588 -0.17096522 -0.036661264 0.28939047
0000d0 6f 8b 09 3d 04 37 71 3e 18 74 96 bc 60 7b 93 3e
       0.03358024 0.23556143 -0.018365905 0.28805065
0000e0 f5 07 cc be 21 c9 c5 3c d5 41 8f be e2 b1 63 be
       -0.3984982 0.024143757 -0.27979913 -0.22235826
0000f0 64 91 9c bd c5 ca 43 3e d8 07 84 3e 9d 54 89 bd
       -0.076449186 0.19120319 0.25787234 -0.06705592
000100 99 2d a5 be 73 00 ad be 1d 2b 80 be c8 c7 90 3e
       -0.3226135 -0.33789405 -0.25032893 0.2827742
000110 bf 7a 34 3e 72 9c 0b be 3b 83 14 be f2 fa 82 3e
       0.17624949 -0.13633898 -0.14503185 0.2558208
000120 e1 fd a6 3e f2 76 db 3e 93 bc 4e 3e 18 ca c5 3e
       0.3261557 0.42864186 0.20189123 0.38630748
000130 e1 3c e6 3d 24 17 90 3d 7d db 97 3e 76 ac 03 be
       0.112420805 0.07035664 0.29659644 -0.12858757
000140 62 0a 0e 3e 75 93 93 be 88 fc 53 3e 6f 03 6f be
       0.13871148 -0.28823438 0.20701802 -0.23341154
000150 52 39 3b be 81 be 50 3e 44 9c ed 3d c1 b5 97 be
       -0.18283585 0.20385171 0.11602071 -0.29630855
000160 05 26 aa bd 07 9d b3 3e 92 05 78 be 94 78 db 3d
       -0.08308033 0.3508074 -0.24220875 0.10716358
000170 92 5e ab 3e 09 d0 8d 3e cb 8b b0 bc ff dd 96 3e
       0.3347059 0.2769778 -0.021551033 0.29466245
000180 27 43 a7 be f0 d7 97 3e 6e b6 3f 3e 3d 9c 59 be
       -0.3266842 0.29656935 0.18721935 -0.21251006
000190 43 ee 9f be 14 76 9b be aa 79 42 3e e9 95 ac 3e
       -0.31236467 -0.30363524 0.18991724 0.33708122
0001a0 ea 76 67 3e f4 79 29 bd 11 b9 e6 3d 77 e4 b9 bd
       0.22603956 -0.04137607 0.11265767 -0.09076779
0001b0 b8 ae aa bd 73 a8 2d 3d b3 fb 2f be 5e 59 15 3e
       -0.08334106 0.042396974 -0.1718586 0.14584872
0001c0 f0 ce c7 be 9d 42 b8 3d 12 bf aa bc 6e 30 6e be
       -0.39025068 0.089970805 -0.020843063 -0.23260662
0001d0 45 44 84 3e d7 fe 57 be fb b0 98 3e e2 2e 57 3e
       0.25833336 -0.21093307 0.29822525 0.21013978
0001e0 51 de ee be ac 93 b1 be 9e 30 d5 bd e8 36 86 3e
       -0.4665399 -0.34682977 -0.104096636 0.26213765
0001f0 17 a8 97 bc 04 07 07 3e c8 69 19 3e 4f 96 b4 be
       -0.018512769 0.1318627 0.14981759 -0.35270926
000200 5a 81 a3 be 6b ad 8d be 47 51 d0 be 2d 61 58 3e
       -0.31934625 -0.2767137 -0.4068701 0.2113082
000210 c9 51 ec bd eb 10 87 be c0 44 90 3e e7 11 91 be
       -0.11539037 -0.26380095 0.28177452 -0.2833397
000220 5c f2 93 be 7c 6f 1d be b0 9c 6c be 33 bb dc 3e
       -0.28895843 -0.15374559 -0.23106647 0.43111572
000230 18 f6 8a 3e 34 fc 79 3d b5 30 99 3d e9 ce 32 bd
       0.2714088 0.061031535 0.07479993 -0.043654356
000240 0f ba 74 be 6d 39 7a 3e 42 e8 b8 be c5 53 99 bc
       -0.238991 0.24435969 -0.361147 -0.018716702
000250 56 7f 80 bd 14 aa c5 3b fd 66 83 3e 24 9d 8a be
       -0.062742874 0.006032238 0.2566451 -0.27073014
000260 f5 5f 3d be c5 fa 2d 3d cf 2f ae be 54 27 29 be
       -0.18493636 0.04247548 -0.3402085 -0.16518909
000270 b7 0f a0 3e f9 16 24 be 4e bd 86 be 4d 13 86 3e
       0.3126199 -0.16024388 -0.26316303 0.261866
000280 ad 31 41 be 15 fb 62 be 49 b3 1e 3e 9f 60 d2 bd
       -0.18866606 -0.22166093 0.1549808 -0.10272335
000290 7c ba 4a be 6b b1 53 be 26 9b e2 3e d9 57 a7 be
       -0.197977 -0.20673148 0.44258994 -0.3268421
0002a0 6c d8 b5 3e 31 af b1 3e 05 19 06 bd 43 67 3d 3e
       0.3551668 0.34703973 -0.032738704 0.18496422
0002b0 4c 6a 89 3e 4e 80 86 3e ea 7d 9f 3e bd da 85 be
       0.2683891 0.26269764 0.31150752 -0.26143447
0002c0 a5 f6 7c be bd 10 dd bd 4b f8 87 3e 61 a5 26 be
       -0.24703462 -0.10794208 0.2655662 -0.16274025
0002d0 a4 e0 c9 bd 7b 31 4f 3e 13 1f 56 be ef 44 02 3e
       -0.098573 0.20233719 -0.20910291 0.12721609
0002e0 fd 51 3d be d0 63 88 be d4 25 8c be 44 a8 b7 be
       -0.18488307 -0.2663865 -0.2737261 -0.35870564
0002f0 4a ea 4b 3e 94 ff 69 3e 14 22 95 bb 24 18 8b 3e
       0.19913593 0.22851402 -0.0045511816 0.27166855
000300 43 d7 76 be cd 3c 20 3e c6 26 19 3e 3f 11 14 be
       -0.24105553 0.15648194 0.14956197 -0.14459704
000310 84 2f 7c 3e ed 5b 6c 3e 5c 44 76 be 29 3b 88 3e
       0.24627501 0.23081942 -0.24049515 0.26607636
000320 5f 29 bd bd 00 d4 46 3e 65 ad 48 3e 46 44 38 3e
       -0.092364065 0.19416809 0.19597395 0.17994794
000330 41 56 ae 3e e2 8a 43 3e d8 4e 55 be 2d 32 7b be
       0.34050182 0.19095948 -0.20830858 -0.2453086
000340 f2 84 51 be 7e 1f 93 3e f8 39 99 be cc 56 f6 bc
       -0.20460871 0.28734964 -0.2992704 -0.030070685
000350 c7 61 99 3e 87 ce 91 ba c1 f4 51 be 5a 83 9f be
       0.2995741 -0.0011124172 -0.20503522 -0.311549
000360 09 e2 e3 be cf e2 82 3e a6 24 0f 3e e2 75 72 be
       -0.4450839 0.25563666 0.13978824 -0.23677781
000370 0d cf 92 bd 05 7e 44 3e 92 bd b4 3e f8 da 41 3e
       -0.07168398 0.19188698 0.3530088 0.18931186
000380 42 de 80 3e 46 b0 07 3e 3c ab 46 be d4 36 f1 bc
       0.2516957 0.13250837 -0.19401258 -0.02944509
000390 68 9e 45 be 95 f1 c6 bb c1 27 2d bd e8 f4 8f be
       -0.19298708 -0.0060712793 -0.04227424 -0.28116536
0003a0 63 88 8b be 1f f8 66 be 3f 8f 26 be 63 13 28 3e
       -0.27252492 -0.22555588 -0.16265582 0.16413645
0003b0 2d e1 69 3e 5d 8d 7d 3e 74 40 a7 be e7 e9 f3 3e
       0.22839804 0.24760957 -0.3266636 0.4763939
0003c0 67 47 cd 3d 33 0c 45 be 17 ff 7a 3e 1a 84 34 be
       0.100233845 -0.19242935 0.24511372 -0.17628518
0003d0 48 28 a3 bd 32 91 a7 bd ab 37 87 be a2 1e 9d be
       -0.079666674 -0.08181991 -0.2640966 -0.30687433
0003e0 75 fd 9f be 26 21 4b bd ea 53 55 3e 43 bf a8 3e
       -0.3124806 -0.04959216 0.20832792 0.3295842
0003f0 72 ed ff bd 47 e3 9b be 31 28 05 be 67 a6 9e be
       -0.12496461 -0.30446836 -0.13003613 -0.3098633

unembed.weight f4 [59, 256]
000000 c8 c9 84 be 02 37 a7 bd a2 24 46 3e 03 78 10 be
       -0.25935197 -0.08164789 0.19349912 -0.14108281
000010 1f 6d 97 3e f2 ba 70 3e 9e 63 a0 3e 08 ce 85 3e
       0.2957544 0.23508814 0.31326002 0.26133752
000020 5b 16 8d bd 56 31 bb be 51 0e 7a 3e 20 b8 57 3e
       -0.068890296 -0.36561078 0.24419524 0.21066332
000030 87 72 b2 be f8 0d 6d 3e 01 ed 68 3e 3d 1a 30 3e
       -0.34853002 0.2314986 0.2274666 0.17197509
000040 7c 31 80 3e a9 74 65 3e ef 4b 7a be 0f 3a 27 3e
       0.25037754 0.22407784 -0.24443029 0.16330741
000050 22 6d 5b be 8a a2 b5 3c b1 08 3d be 90 95 86 3e
       -0.2142835 0.022172231 -0.18460347 0.26285982
000060 4f 43 4a 3e ce ad 70 3e e7 3f 8d 3e 86 f4 2b be
       0.19752239 0.23503801 0.27587816 -0.16792497
000070 88 21 6e 3e 1c 0e 50 3e 48 eb 91 bd 1f 52 b8 3e
       0.23254979 0.20317882 -0.071249545 0.36000153
000080 62 87 30 be aa 01 2f bd 0b f8 65 be e1 5b 9d be
       -0.17239144 -0.042726196 -0.22457902 -0.3073416
000090 75 50 59 be 62 a5 8f be 8c 20 5c be 30 df 80 38
       -0.21222098 -0.28055865 -0.2149679 6.1450875e-05
0000a0 e0 b1 5c 3e eb 11 8f 3e 51 34 b0 3e 76 e7 84 3e
       0.21552229 0.27943358 0.34414914 0.2595784
0000b0 95 ee a8 be 16 60 4a 3e a0 70 3c bd ca a8 60 be
       -0.32994524 0.19763216 -0.046005845 -0.21939388
0000c0 f5 20 09 bd d0 32 1c be c9 7d 60 3e 44 23 0a 3e
       -0.033478696 -0.15253758 0.21922983 0.13490015
0000d0 65 6e 72 3e 0d 6d 8a 3e 84 05 b8 be a8 33 0b bd
       0.23674925 0.27036324 -0.35941708 -0.03398481
0000e0 a1 ef a1 3e fd 91 7d 3e 83 69 d6 3d 7c aa 8a 3e
       0.31628135 0.24762721 0.104693435 0.27083194
0000f0 d2 e9 60 be 47 29 83 3e 84 be 48 3d ca fe 7c 3e
       -0.21964195 0.2561743 0.049009815 0.2470657
000100 be 71 86 3e e4 f2 32 3e 4e 7c ba 3d 43 bf 20 be
       0.26258653 0.17475468 0.091057405 -0.1569796
000110 d8 78 7d be 0c 2a 8d bd b8 a6 06 3e 5d 16 5a 3e
       -0.2475313 -0.068927854 0.13149536 0.21297593
000120 bc 1d 8e 3e 5d a9 40 3e 9d 5b bb be 2e 61 51 be
       0.2775706 0.18814607 -0.36593333 -0.20447227
000130 bc dd 85 3d b1 02 21 be ea 35 a5 3e 02 12 3f 3e
       0.06536433 -0.15723683 0.32267696 0.18659213
000140 82 0f 65 3e 04 78 44 b0 bd f3 35 3e 69 ac 8a 3e
       0.22369197 -7.1474937e-10 0.1776876 0.27084664
000150 67 88 13 bd 3c 19 a2 be 0f 86 78 be f6 59 c4 be
       -0.036018755 -0.31659877 -0.2426989 -0.38349885
000160 ac 5b 29 3e 0a 23 53 3e 06 53 89 be 0a 09 56 3d
       0.16538876 0.20618835 -0.26821154 0.052254714
000170 15 7c b4 be 66 c9 65 3e 01 a0 bf bd f0 87 9d be
       -0.35250917 0.22440109 -0.0935669 -0.30767775
000180 00 7f f8 3d 91 18 0a 3e db ea 90 bd 1e d1 95 3e
       0.12133598 0.13485934 -0.07076045 0.29261106
000190 ca 67 6f 3e 9c 6f 76 3e 87 4d 32 3c c7 d8 02 be
       0.23379436 0.24066013 0.010882742 -0.12778006
0001a0 c1 42 2a 3e ad e3 e9 3c c2 3c 1f be e2 36 61 3e
       0.16627027 0.028550947 -0.15550521 0.21993592
0001b0 21 e6 87 3e ac dc 89 3e 8e 80 96 be 18 3f 95 be
       0.26542762 0.26926172 -0.29394954 -0.291497
0001c0 29 70 43 3e 18 ad 21 3e c8 37 1d 3d 5e 24 91 be
       0.19085754 0.15788686 0.038383275 -0.28348058
0001d0 4b 37 54 3e 17 59 80 be 3a a4 4d 3e 6c b0 fb be
       0.20724218 -0.2506797 0.20082179 -0.49158037
0001e0 38 60 2f be 93 79 63 3e 91 93 53 be e5 b5 76 3e
       -0.17126548 0.22214346 -0.20661761 0.24092825
0001f0 37 3b 0a 3e 6d d1 e2 3d 30 48 75 be 29 3c 30 bd
       0.13499151 0.11075101 -0.23953319 -0.043026123
000200 99 91 47 bd de d7 d6 3d d7 ce 46 bb 5e cd 76 be
       -0.048722837 0.10490392 -0.0030335688 -0.24101779
000210 81 8d 83 be 73 4b 13 be 67 8c 2f 3e 2e 71 70 3d
       -0.25693896 -0.1438425 0.17143403 0.058701687
000220 df a1 4c be 62 62 86 3e fb 00 67 3e 74 23 6c be
       -0.19983624 0.26246935 0.22558968 -0.230604
000230 81 fa b6 be ee 7b 20 be 53 44 79 3d 33 58 6f be
       -0.35737994 -0.15672275 0.060856175 -0.23373489
000240 92 46 d2 bd 84 07 05 be d8 d1 16 be 66 5e c6 3d
       -0.102673665 -0.12991148 -0.14728487 0.09685974
000250 79 26 9f be c1 13 86 be ee 53 57 3e 47 ab 07 be
       -0.3108404 -0.26186946 0.2102811 -0.13248931
000260 69 94 cf bd ea 6f 73 3e 17 69 91 be 5b 83 8a 3e
       -0.10135729 0.2377316 -0.2840049 0.2705334
000270 cf f4 71 be f3 c4 72 3e a7 11 38 3e 57 24 22 be
       -0.23628543 0.23707943 0.17975484 -0.15834175
000280 c5 23 72 3e d3 2b 85 3e 34 df 66 be 65 e2 a1 be
       0.23646457 0.26009998 -0.22546083 -0.31618038
000290 11 3a cc be 4d 35 b7 3e b4 0d 6c 3e 5b 5d c1 be
       -0.3988805 0.35782853 0.23052102 -0.37766537
0002a0 9d 32 6f be a5 ad 0f be f8 f1 3e be d6 12 e5 bd
       -0.23359151 -0.14031084 -0.18646991 -0.11185233
0002b0 97 0c 2d 3e d9 58 10 39 58 23 43 bc 9e d6 8e 3e
       0.16899334 0.00013766008 -0.011910282 0.27898115
0002c0 2f af 86 3e f6 65 60 bd df 20 84 3e d0 96 56 3e
       0.2630553 -0.054784738 0.2580633 0.20955968
0002d0 54 8c 14 3e 4b d7 8d b1 76 33 e1 bd e9 a7 b6 bd
       0.14506656 -4.128116e-09 -0.109961435 -0.08918745
0002e0 79 73 f2 bc 9d 96 4a 3e a4 ca 94 be d6 08 a6 be
       -0.029596077 0.19784017 -0.29060853 -0.32428616
0002f0 cc c7 af be 09 3f 30 be d1 f1 80 3e ba 81 d7 bd
       -0.3433212 -0.17211546 0.2518449 -0.1052279
000300 bd 3d b0 be 9c e4 a8 38 28 23 7f 3e cd fa 5e be
       -0.34422103 8.053446e-05 0.24915755 -0.2177536
000310 0f 5e 6a be 5c 5b b3 3d 7d 8b 54 3e 68 5e 62 3e
       -0.22887443 0.0875766 0.20756336 0.22106326
000320 6b dc 5f 3e 03 e5 6f 3d 70 56 9f bd ff 0b f1 bc
       0.21861427 0.058568012 -0.077801585 -0.029424665
000330 90 29 6c 3e 58 43 9d be 9a 6e c7 bd 8e 18 aa be
       0.2306273 -0.30715442 -0.097378924 -0.3322186
000340 da 15 b2 be 7e 93 5a 3e d5 4c 36 3e ec 53 3b bc
       -0.34782296 0.21345326 0.17802747 -0.011433583
000350 60 bc 8f 3e 8b 25 2c 3d 83 5d 5f 3e 08 c4 e1 3d
       0.28073406 0.04202799 0.21813016 0.11023718
000360 60 34 73 3e 2a cd 22 bd a9 e3 29 3e 47 dc 78 3e
       0.23750448 -0.03974644 0.16590752 0.24302779
000370 f6 0b 89 be 14 85 48 bc 90 69 a5 be 23 ba 84 3e
       -0.26766938 -0.01223876 -0.323071 0.2592326
000380 29 7d a6 3e 19 48 80 be 0d 4b 7b 3e 73 ee b6 bd
       0.32517365 -0.25055006 0.24540348 -0.08932199
000390 fa 65 73 3e 08 6d 8d 3e 81 8a b7 3d 55 59 60 3e
       0.2376937 0.27622247 0.089619644 0.21909077
0003a0 42 fd 84 bd 68 52 af 3d 2b fb 8c bd 6e c4 9d bd
       -0.064936176 0.085606396 -0.06883844 -0.077034816
0003b0 bd 64 4f 3e 3d 81 19 3c 10 84 9e be df 00 92 3e
       0.20253272 0.009369192 -0.3096013 0.2851629
0003c0 af c9 07 be e1 07 51 3e 08 82 84 3e 10 5a 81 3e
       -0.1326053 0.20413162 0.25880456 0.25264025
0003d0 02 60 a0 be d6 6e a7 be 97 6c 68 bd be 9a 9f be
       -0.31323248 -0.3270175 -0.056744184 -0.31172746
0003e0 0a 33 0f 3e 80 2e 47 be 79 d4 01 3e e7 42 85 3e
       0.13984314 -0.19451332 0.12678708 0.26027605
0003f0 6f de 69 3c e6 bc 83 3e e4 30 8f 3e 83 95 59 3e
       0.014274224 0.25730056 0.27966988 0.2124844

l1.weight f4 [256, 256]
000000 14 5c 53 be ce b0 17 3e 80 d6 09 3e aa 18 43 be
       -0.20640594 0.1481354 0.13460732 -0.19052377
000010 7c 7f 35 be ff 39 02 3e d2 98 8f bc 91 f2 2a 3e
       -0.17724413 0.12717436 -0.017528925 0.16694094
000020 f9 2e 92 be ab 98 14 be 25 d3 83 3e 07 48 2f 3e
       -0.28551462 -0.14511363 0.25747028 0.1711732
000030 28 e0 94 3e 3d 77 83 bd 8c 95 55 be 9d 19 bb bd
       0.29077268 -0.06419227 -0.20857829 -0.09135745
000040 98 ba 1b 3e 15 f6 5f be db b3 4c 3e 90 20 6e 3e
       0.15207899 -0.21871217 0.19990484 0.23254609
000050 be 66 2e be ce b3 46 3e 81 bd 1f bd 89 6b 6d be
       -0.1703138 0.19404528 -0.038999084 -0.23185553
000060 67 dc 19 be 45 c0 b6 bc 25 6f 9d bd 71 95 73 3e
       -0.15025483 -0.022308478 -0.07687215 0.23787476
000070 c8 25 e1 3d 03 78 9d 3d 77 b6 58 3e f7 94 48 3e
       0.10993534 0.07688906 0.21163355 0.19588076
000080 47 24 88 3d 8c 1c 95 bc c0 e0 0a 3e 74 62 16 be
       0.06647544 -0.018202089 0.13562298 -0.14685994
000090 fb f8 02 3e b3 b4 39 be b1 57 4b 3e 07 0c 0f be
       0.12790291 -0.18135338 0.1985767 -0.13969432
0000a0 8f 84 3a 3e 46 b5 37 3e de c3 c8 bd 79 0a 93 bc
       0.1821463 0.17940244 -0.09802984 -0.01794933
0000b0 e5 42 8d ba 67 45 0e 3e b0 cc d2 3c f0 f6 0a 3e
       -0.0010777382 0.13893662 0.025732368 0.13570762
0000c0 dd d7 03 3e 84 10 1b 3e ca 3d 4e bd 4d aa 5c 3e
       0.12875314 0.15143019 -0.050351895 0.2154934
0000d0 95 5d 3f 3c f1 0d 24 3d e8 54 09 3c 8b 5e 6b 3e
       0.011680027 0.040052358 0.00838206 0.22985284
0000e0 ab 9f 03 be 86 b9 4d be f0 0c 7d be d5 ab fe 3d
       -0.12853877 -0.20090303 -0.24711967 0.12435118
0000f0 77 66 8e 3e 7a f1 a5 bc 1a 66 d3 3d 78 75 e7 3d
       0.2781255 -0.020256747 0.10322209 0.11301702
000100 49 87 b1 bd 5b 56 3e 3e 2b ef 38 3e 1a 7c 30 be
       -0.08668382 0.1858763 0.18059985 -0.17234841
000110 f1 a3 3e 3e 8a a7 62 3e 83 96 ea 3d fe ea 0c 3e
       0.18617226 0.22134224 0.11454489 0.13761517
000120 2c 3f a7 bd 12 ff 7f 3e a4 2c bf 3d e6 57 4f be
       -0.08166346 0.24999645 0.093346864 -0.20248374
000130 bf 2a d4 3d 1d f6 0b 3e 82 ec 11 3e 66 56 44 be
       0.10359716 0.13668104 0.14250377 -0.19173583
000140 a7 6e c6 3d 01 17 09 3e da 14 6b be 3f 99 54 3d
       0.09689074 0.13387682 -0.22957173 0.05190396
000150 dd 01 34 3e d9 75 1e 3e 81 85 1f be d5 04 73 be
       0.17578836 0.15474643 -0.15578271 -0.23732312
000160 f1 94 1f be 37 f2 bb 3d 7b b8 24 3e 3a c8 13 be
       -0.1558416 0.09177058 0.16085999 -0.14431849
000170 54 b2 9d bc 30 28 56 bd 7a 3d 02 3d 55 3c f2 3d
       -0.019250073 -0.05228442 0.03179691 0.11827914
000180 1d eb 5f 3d 56 fe 64 3e 50 aa 5b 3e 30 a8 0e 3e
       0.05466758 0.22362646 0.21451688 0.13931346
000190 ae e4 9c 3d a2 a2 32 3e c5 bb 08 be e9 15 ca 3d
       0.07660805 0.17444852 -0.13352878 0.0986746
0001a0 a7 a2 7c bd bf 9d fe 3d 42 ea bd bd 77 d6 72 bd
       -0.061678555 0.124324314 -0.09273197 -0.05928656
0001b0 3f d0 c9 3d d2 7e 40 3e 2d 06 37 bd aa 51 67 3e
       0.09854173 0.18798378 -0.044683624 0.22589746
0001c0 d8 e8 d9 bd 44 de 75 bd 65 40 0d be c4 9a 16 3e
       -0.106401145 -0.060026422 -0.13794096 0.14707476
0001d0 8f 1f 52 be 81 11 68 be 9d ad 51 be 1d cb f5 bd
       -0.20519851 -0.22662927 -0.20476384 -0.120016314
0001e0 4a 76 4d 3e 85 05 d8 bc a3 a1 2c 3e 85 45 46 3b
       0.20064655 -0.02636982 0.16858535 0.003025384
0001f0 fe 40 44 3d aa d6 08 3e dc 66 33 be d4 93 b9 3d
       0.047913544 0.13363138 -0.17519706 0.09061399
000200 e3 0e d8 3d 60 aa 03 bd 37 90 40 bd d4 85 75 be
       0.105497144 -0.032144904 -0.047012534 -0.23976833
000210 04 66 b7 bd f3 75 28 be 79 08 4b be 87 3f 80 bc
       -0.08955005 -0.16451244 -0.19827451 -0.015655292
000220 24 d1 37 be 1c 8a 5e be c8 06 4b bc e5 ea 63 be
       -0.17950875 -0.21732372 -0.0123917535 -0.22257574
000230 2f 82 9f bd 7d 93 34 3e d8 4b a0 3d 59 4e 2c 3e
       -0.077885024 0.17634387 0.07826966 0.16826762
000240 f2 93 7a 3e ef c4 74 be 7b 4a 22 3e c9 bb 5d 3e
       0.24470499 -0.23903249 0.15848725 0.21653666
000250 22 d5 1a 3e 3e 96 19 3e 28 78 54 be 58 a1 51 3d
       0.15120366 0.14998719 -0.20748961 0.05117926
000260 6d 29 24 be 89 98 cd bd 85 d4 54 3e 60 f7 8a 3c
       -0.16031428 -0.100388594 0.20784195 0.01696366
000270 64 2d 3e 3e fc 11 c8 bd 75 e9 46 bd 0c 0b c1 bd
       0.18572003 -0.09769055 -0.048562486 -0.09425935
000280 e7 c0 0a 3e 82 90 1b 3e 9a 3d 98 3d 30 29 ff bc
       0.13550149 0.15191844 0.074336246 -0.03114757
000290 93 f7 e8 3d 8b cd 62 be 45 5c 06 3e 9d 53 cb 3d
       0.11375346 -0.22148721 0.13121136 0.09928057
0002a0 b8 78 9a 3d 30 46 ef bd 0e 1b 00 3e 5e 4f 3e be
       0.075425565 -0.11683309 0.1251032 -0.18584964
0002b0 5a 09 55 be 26 f3 24 bd 72 1a e7 bd e3 9b 52 3e
       -0.20804349 -0.040270947 -0.11284341 0.20567279
0002c0 9b ad ed 3c f6 26 63 bd 75 ed 15 3e 56 c5 c6 3d
       0.029013446 -0.055457078 0.14641364 0.097056076
0002d0 73 13 0d be 77 5f 81 be 16 18 53 3e f6 dd 33 3c
       -0.1377695 -0.25268146 0.20614657 0.010978213
0002e0 13 e3 01 3e 23 8a 1e bd 58 d2 33 bd 5f eb 69 3e
       0.12684278 -0.038705956 -0.04390177 0.22843693
0002f0 d1 eb 9e 3e 50 9f 09 be 6b 1a 04 be 6a 17 55 3e
       0.3103929 -0.13439679 -0.12900703 0.20809713
000300 08 73 dd 3d ba 0c 8e 3e b2 c2 05 3e e0 79 c0 3d
       0.10812956 0.27744085 0.13062552 0.09398246
000310 7e 0a 3b bd 5b c5 56 3e ba 01 71 3e 2a 3b 72 3e
       -0.045664303 0.20973723 0.23535815 0.23655382
000320 a1 4a 7b be be 43 6e bd 93 a3 20 be 9f e1 c5 bd
       -0.24540187 -0.058170073 -0.15687399 -0.096621744
000330 79 82 0b be 8a ec 88 3b 44 29 17 3e fe 4c 32 be
       -0.1362399 0.0041785883 0.14761835 -0.17412183
000340 00 bb 88 3d bf be 5c be c8 b9 bd bd b6 52 60 3e
       0.066762924 -0.21557139 -0.092639506 0.21906552
000350 f4 ab 0c be de f2 08 bd 90 9e 8c 3d 28 11 4d 39
       -0.1373747 -0.03343474 0.06866181 0.00019556715
000360 3b 0f 5d bc bd 7f 51 be 5a cb dc bd 0d 2e 30 bd
       -0.013492401 -0.20458885 -0.10780974 -0.043012667
000370 71 55 48 be 31 71 3e be 64 0d 72 3e 62 38 d8 bd
       -0.19563843 -0.18597867 0.2363792 -0.10557629
000380 7e 7d ee bd 72 28 34 be 0b a0 10 be 21 a2 02 ba
       -0.116450295 -0.17593554 -0.14123552 -0.00049832655
000390 97 8b e0 3d 08 bb fc 3d 30 42 37 be 1c 99 5b be
       0.10964125 0.12340361 -0.17896342 -0.21445125
0003a0 2a 2e 02 be 99 ab eb bd a0 aa 02 3e dc 84 34 be
       -0.12712923 -0.11507339 0.12760401 -0.17628807
0003b0 d4 79 85 3c 97 c4 82 3e 67 48 3e be 7d 6c e9 3d
       0.016293444 0.2554061 -0.18582307 0.113976456
0003c0 a5 12 1c be 43 08 47 3d 46 be b0 bd a2 25 65 be
       -0.15241487 0.048591863 -0.08630042 -0.22377637
0003d0 7c 43 54 be f7 8b 27 be 98 d0 ec 3d 76 14 f8 3d
       -0.20728868 -0.16361986 0.115632236 0.121132776
0003e0 99 5f 82 3e f7 6c ab 3d 82 d0 55 3d 75 f4 64 be
       0.2546356 0.08370393 0.0522008 -0.22358878
0003f0 13 e7 24 3e 26 12 fc bd 8a 36 9a 3c 1b 47 3b 3e
       0.16103773 -0.12308149 0.018824834 0.18288843

l1.bias f4 [256]
000000 b6 e6 d9 3a fb 1e fa 3c c8 19 d2 3c 4d 77 98 3c
       0.0016624543 0.03053235 0.02564706 0.018611575
000010 6b cc 05 3b d1 e1 e8 bb d3 a5 03 3a e3 a0 d3 3a
       0.0020416032 -0.0071069975 0.0005021963 0.001614597
000020 fd 6d 4b bb 1c 76 30 bd f4 46 e5 ba e1 b1 43 3d
       -0.00310409 -0.043081388 -0.0017492459 0.04777706
000030 a4 ba 90 3b 89 d2 ef bc a9 ed 45 3b ba 99 4c bc
       0.0044167805 -0.029275196 0.003020147 -0.012487823
000040 3c 5c 4d bd fd 82 d3 3b b2 bc 3f 3a cb 07 a8 bb
       -0.05013679 0.006454824 0.00073141896 -0.005127882
000050 d9 80 6e 3c d5 c7 26 3c 7c d2 64 bb 64 16 76 bb
       0.014557087 0.01017948 -0.0034915498 -0.0037549967
000060 91 14 d1 bc 17 ff 15 bc 0b 85 80 3c bf d9 8d 3c
       -0.025522502 -0.009155056 0.01568844 0.017315743
000070 0e 0e 17 bb c2 c1 aa 3b d8 2c 34 3c 47 70 ee 3c
       -0.0023049149 0.005211086 0.01099702 0.029106272
000080 67 b6 5c 3d 34 68 6c bc 2f 95 1a 3b 06 2b 60 3c
       0.05388489 -0.014429141 0.0023587456 0.013682133
000090 21 20 13 3b d2 b6 43 3b 1c cd 91 bc f3 4c bd 36
       0.002244957 0.0029863608 -0.017798 5.641597e-06
0000a0 35 3b 6d bd c3 2b a4 b9 60 fe 2a 39 52 83 7f ba
       -0.057917792 -0.00031313123 0.00016307225 -0.0009747046
0000b0 65 89 2f 3c 8a 4b 1f bd 21 d2 ab b9 8e 7d e9 bc
       0.01071391 -0.0388904 -0.0003277222 -0.028502252
0000c0 cd 8c 61 bb a8 8c c9 3b c1 0e 97 bb bf 12 41 ba
       -0.00344162 0.0061508007 -0.004609913 -0.0007365159
0000d0 e6 18 0b 3c cd 8b 12 3b 2e 10 bd 38 19 0c bc 3c
       0.008489823 0.002236116 9.015236e-05 0.022954987
0000e0 33 51 25 3c e9 7b 46 bc e5 a0 88 bb 2b da 78 bc
       0.01009016 -0.012114503 -0.0041695707 -0.015188734
0000f0 46 80 6c 3b 62 85 84 3c 32 70 91 3c d1 c4 f8 bb
       0.00360872 0.016176883 0.017753694 -0.0075918217
000100 67 2d 95 3b ca e7 82 3c c9 7e 2b bd 49 b3 6a 3c
       0.0045525315 0.015979666 -0.04186896 0.0143249715
000110 16 92 0e bd 80 26 91 bc 42 40 c6 bb 6d 96 0a 3d
       -0.034807287 -0.017718554 -0.0060501406 0.033834863
000120 2e 9e 2c bd 47 46 8b 3b f6 d0 70 3c 5e 56 a4 3a
       -0.04214304 0.004250321 0.014698258 0.0012537946
000130 27 03 2f bb 60 01 b8 bc 0d f0 bc bc 7b 38 ce b9
       -0.002670476 -0.022461593 -0.023063684 -0.00039333463
000140 07 1a d4 3c 60 54 04 2f bc 9b 9d 3b c4 f1 0f bc
       0.025891317 1.2035306e-10 0.0048098247 -0.008785669
000150 45 0b 63 3c c1 de a4 3b f5 98 96 3a 83 78 83 3d
       0.013857667 0.005031437 0.0011489677 0.0641947
000160 b4 4e ec 3b 7b 0c 52 3c fd b5 12 3c 1d de 12 3c
       0.0072115306 0.012820358 0.008954522 0.008964089
000170 c9 d9 03 3d a2 26 98 38 c1 f9 10 bd 85 56 80 bc
       0.032190118 7.255121e-05 -0.035394434 -0.015666256
000180 1f 23 32 bb 5a 7d 0e 3c 52 c7 ad bb aa 77 cb bb
       -0.0027181578 0.008696878 -0.005303302 -0.0062093334
000190 8f 5e 3c 3c 73 88 2d bb 99 e1 05 bc 7b ff 7d bc
       0.011497154 -0.0026479035 -0.008171462 -0.015502806
0001a0 38 2c 48 bc 5d d1 4a 3b 62 6a 21 bc 86 80 b9 bc
       -0.012217574 0.0030947544 -0.009852024 -0.022644293
0001b0 bd 25 b4 3b f4 95 8c 3c c2 89 a3 3b 4b e5 d7 bc
       0.005497663 0.017161347 0.0049907872 -0.026354453
0001c0 91 e4 4e bb e8 90 3d 3a 6f bd 21 bc 47 ec 9e 3b
       -0.0031569342 0.00072313705 -0.009871825 0.004849944
0001d0 9a 6e 56 3c da 5e 97 3c af 95 ec 3c cd 61 92 3b
       0.013087893 0.018477846 0.028879968 0.004467225
0001e0 2a 72 99 3b 9b fe 88 bc 86 d6 d2 bc 77 95 8d 3b
       0.004682799 -0.016722968 -0.025737058 0.004320796
0001f0 bc e6 c5 bc 79 e7 44 bc 97 ff 7a 3c 1e 68 94 bc
       -0.024157874 -0.012018078 0.015319726 -0.018116053
000200 29 f7 fc 3a c7 38 f4 3c ec 57 aa 3c db d6 18 bb
       0.0019299734 0.02981223 0.020793878 -0.0023321423
000210 6b cd 91 39 a4 91 1e bc f3 4b 4d bd 31 c5 3b bc
       0.00027809603 -0.009678278 -0.05012126 -0.011460588
000220 c7 9b e1 3b 72 3c 0d 3d d6 9c 8b 3a d3 c6 06 bd
       0.006885025 0.034481473 0.0010651599 -0.032904457
000230 0b 77 70 3c ef a7 ae 3b e7 96 97 bb 23 c9 8a bb
       0.01467682 0.005330078 -0.0046261433 -0.004235403
000240 5e 47 1a bd 46 12 cf 3c 86 b4 2d 3b 4b 5f ad 3c
       -0.037665717 0.025277268 0.0026505305 0.021163603
000250 62 d5 c8 3c 61 2c aa 3c bf 2a bc 3b b5 57 33 bc
       0.024515811 0.020773115 0.0057424004 -0.010946204
000260 10 2c 6a bb 62 85 0f bd e4 6a c0 bc ab 78 8d 3c
       -0.003573183 -0.035039313 -0.02348847 0.017269453
000270 71 ce 8a 3c ae 38 60 bc 23 c6 05 bd ef b3 3e 3c
       0.016944142 -0.0136853885 -0.03265966 0.011639579
000280 b1 a3 15 bb 28 50 ba bc 5c 1d 75 bb 9d 12 89 bc
       -0.0022833163 -0.0227433 -0.0037401533 -0.016732508
000290 80 76 1e 3d a2 3b 80 3c 47 6f 97 3b cb 31 be bc
       0.03868723 0.015653435 0.0046214196 -0.023217103
0002a0 d7 87 a8 3c db 26 ac 3a 60 25 44 3b fc 1b a0 3c
       0.020572586 0.0013134138 0.0029929504 0.019544594
0002b0 ed 3b a6 3a 4b 49 d1 b5 29 41 a7 3a da 32 22 3c
       0.0012682654 -1.5593045e-06 0.0012760508 0.009899819
0002c0 ec bf fd bc cc 67 b1 3c 8b 61 c4 3c 2d 10 84 bc
       -0.030975305 0.02165594 0.023972293 -0.016120994
0002d0 22 e5 51 3c e6 57 2a 2f 9b 0a f1 3c 95 bf 36 3c
       0.012810977 1.5492638e-10 0.029424002 0.011154075
0002e0 c5 72 c7 bb e0 dc ce 3c 10 77 0c bc e7 6a 9a bb
       -0.0060866796 0.025251806 -0.008573309 -0.004712451
0002f0 54 94 98 b8 bc bd 2a bb 0e 74 fd 3b 43 cc 44 3c
       -7.275553e-05 -0.0026053032 0.007734782 0.01201159
000300 d1 cf 70 bb 4e f5 30 b5 77 ab b4 bc 4b 1d ed bc
       -0.0036744962 -6.5922075e-07 -0.022054417 -0.028944632
000310 81 9d 01 bc e1 a8 88 bb a2 a9 c2 bc b8 4d 6e 3c
       -0.007911087 -0.0041705226 -0.023762528 0.014544897
000320 bf ea ff bb df b6 27 3d 79 e8 9f bc 8c c3 a7 bb
       -0.0078099663 0.040945884 -0.019520031 -0.0051197466
000330 1f b6 72 3c 56 0a 01 3d 57 fa 8c bc fb 81 ed 3c
       0.014813929 0.031503998 -0.017209215 0.028992644
000340 a4 5e a8 ba b3 bc 90 3c ff e2 50 bc 4a 91 49 3c
       -0.0012845588 0.017668104 -0.012749433 0.012302706
000350 71 fd 8f 3c 8d 2a e8 3b e0 db b0 3c fa 4b 0c bb
       0.017576905 0.0070851506 0.02158922 -0.002140759
000360 c1 a9 64 bc bb 45 3e 3d 25 10 b5 bb 47 3a fd bb
       -0.013956488 0.04645322 -0.005525606 -0.0077278945
000370 42 d5 03 bb 2c 48 a5 3b d4 4e 7e bc 8a f7 90 bb
       -0.0020116125 0.005044004 -0.015521724 -0.00442404
000380 7b c4 37 3c d4 90 c6 3c 74 fc 7c 3c dd e0 0e bc
       0.011216278 0.024238981 0.015441049 -0.008720604
000390 2f cb 62 3d de c1 65 bc f4 88 50 3c 9c 51 c6 3b
       0.055369552 -0.014023272 0.012727965 0.006052209
0003a0 76 cc 29 bb ab 2d af bc d1 1c ba bc e4 cc 3e bc
       -0.0025909222 -0.02138408 -0.022718819 -0.011645529
0003b0 b7 c1 03 3c c2 be 00 bc 72 c5 25 bd e0 07 9d bc
       0.008041791 -0.00785798 -0.0404715 -0.019168794
0003c0 3f ec 1c 3c 2a c2 32 3a a8 9b 21 bc da 12 0c 3c
       0.00957781 0.0006819094 -0.0098637715 0.008549416
0003d0 93 51 4e 3a d1 de cd b9 ad 6f ca bc ea 3a 86 3c
       0.0007870432 -0.00039266658 -0.024711454 0.016385514
0003e0 7d bb 47 3b 5d 1c ba 3c 6d 21 83 3b f1 22 e0 3a
       0.0030476742 0.022718603 0.0040017874 0.0017100257
0003f0 d4 67 00 3b ab 94 a0 3b a5 a2 5e bc d8 0b b2 bc
       0.0019593136 0.004900535 -0.013588582 -0.021734163
