code/save/model_p71frej8t7.pt (torch, 649111 bytes, 6 tensors)

embed.weight f4 [59, 256]
000000 5c 0c b4 bc 60 df 03 3e 6e cb 2c be cd d6 69 3d
       -0.02197855 0.1287818 -0.16874477 0.057089616
000010 e5 96 17 3e 0a 58 12 3e bc 83 c3 bd 91 f3 89 3d
       0.14803655 0.14291397 -0.09546611 0.0673591
000020 ba 3a c7 3d f1 f5 d2 bb 2c 38 c7 3d 76 23 5c 3d
       0.09727998 -0.00643801 0.09727511 0.053744756
000030 61 33 a6 3d c4 bb f1 bc 16 2b 23 3e 95 b9 da 3d
       0.081152685 -0.029508479 0.15934405 0.10679928
000040 06 b4 10 3e dc 05 44 3e 58 f7 3c be 7b a5 8a 3d
       0.14131173 0.1914286 -0.18453729 0.06769844
000050 40 6f 53 3d 20 70 c6 bd 13 2d 5c be 5b c8 8a bd
       0.05161977 -0.09689355 -0.2150157 -0.06776496
000060 d3 bb b3 bd fd 10 42 bd 4e c2 d8 bd cf 99 38 3d
       -0.08776059 -0.047379483 -0.10583936 0.04506856
000070 48 e2 32 3e a8 6c 55 be 6b b9 5f 3e 12 ab 7b bd
       0.17469132 -0.2084223 0.21848075 -0.061442442
000080 ed 3b 06 3d 72 86 96 bd 7b f8 13 3e 55 a5 a1 3d
       0.032771993 -0.07349862 0.14450257 0.07892863
000090 9f a6 53 bd 88 30 c1 bd 89 04 43 3e 92 eb 4f 3e
       -0.051672574 -0.09433085 0.19044699 0.20304707
0000a0 f2 fe 18 3e c3 ad e3 3d b8 0b c8 bd e7 85 50 3e
       0.14941004 0.11117127 -0.0976786 0.2036358
0000b0 75 60 57 3e f9 eb 1f be 45 3e 45 3e ac d5 c7 bd
       0.21032889 -0.1561736 0.19262035 -0.097575516
0000c0 08 43 06 bd 36 7c 3d bd 5d c7 40 3d 11 c1 80 3d
       -0.03277877 -0.046261035 0.047065128 0.062868245
0000d0 95 c1 2c 3e 0c d4 8c bd 7e 3e ba 3c 6c 56 02 bb
       0.1687072 -0.06876382 0.022734877 -0.0019887937
0000e0 fa 7e 1c be eb a1 00 be 77 be 56 be 32 01 a1 bd
       -0.15282813 -0.12561767 -0.20971094 -0.07861556
0000f0 e6 26 33 3e fa c3 ae 3d d2 1f cb 3d c3 ba e9 bd
       0.17495307 0.08533473 0.099181786 -0.11412575
000100 53 1d 87 3b e4 db 04 be 0b 37 0f 3e 8f a0 1a be
       0.0041233688 -0.12974507 0.13985841 -0.1510031
000110 3c 9d c7 bd b8 93 a8 3d 92 1d 2b be 09 26 1f be
       -0.09746787 0.082313 -0.16710499 -0.15541853
000120 dd 5e f2 3d 94 ae 01 3d f0 fb d6 3d 2c 4a 12 3e
       0.118345 0.03166063 0.10497272 0.14286107
000130 74 6a 21 3d 80 48 e1 bd ba cd 20 3d 79 25 14 bd
       0.039408162 -0.110001564 0.039258696 -0.03616855
000140 da e9 92 bd cb b5 7a 3b 53 1e f2 bd 2b 77 2d 3e
       -0.0717351 0.003825533 -0.1182219 0.1693999
000150 43 fa 6d 3d 49 ff 15 be b9 e0 35 be 8e 3a fe bd
       0.058099996 -0.14648165 -0.17761506 -0.12413512
000160 9c b2 fb bd 67 ec 09 3e c4 0f 1f be c5 81 0b 3d
       -0.122899264 0.13469087 -0.15533358 0.034059305
000170 7b e5 13 3e 0f 1c 25 bd e5 72 42 3c 64 37 03 bd
       0.14443009 -0.040309962 0.011868213 -0.032035246
000180 d0 7a a3 3d d7 e4 19 bd 66 23 a1 3d 74 6b 38 be
       0.07982409 -0.037571754 0.0786808 -0.1800974
000190 25 6f 09 be f5 a3 5a 3d 64 24 e9 3b 1e 9a 19 bd
       -0.13421305 0.053379018 0.007114934 -0.037500493
0001a0 db 5e e0 3d d2 b1 45 3c ed 5a e3 3d 32 9c 15 3b
       0.10955592 0.012066321 0.11101327 0.0022828695
0001b0 00 5d b0 3c a7 f9 2d 3b 5f fc 0a bd fc 91 88 bd
       0.02152872 0.002654651 -0.033932086 -0.06668469
0001c0 2f 10 11 be c9 99 3b 3e 61 95 19 3e c6 5c 93 3d
       -0.1416633 0.18320383 0.1499839 0.071954295
0001d0 2e 7c a0 3c 51 41 07 be b8 dc 1d 3e 8b e2 14 be
       0.019590463 -0.1320851 0.15416229 -0.14539544
0001e0 83 68 89 bd b6 ea fc 3c bc 5c 13 3e 51 e5 b0 3d
       -0.06709387 0.030873638 0.14390844 0.08637489
0001f0 f8 25 33 bc 04 46 82 3d c3 fa 3b bd db b1 a4 bd
       -0.010934345 0.06361011 -0.045893442 -0.08041736
000200 9c 37 09 3e ea b7 58 3e d7 63 b6 ba dd 99 4f 3e
       0.1340012 0.21163908 -0.0013915253 0.20273538
000210 d3 a5 91 bd 92 f9 82 bc 14 58 d4 bd 50 7b 5d 3e
       -0.071117066 -0.015988145 -0.10368362 0.21629071
000220 71 09 fd 3d 82 e1 64 be 1b bf 3c 3d bc a2 f1 3d
       0.123553164 -0.2235165 0.04608069 0.11798617
000230 08 dd c9 bc 94 b1 b1 bd 26 e9 4c 3d 52 7d 36 be
       -0.024641529 -0.086764485 0.050027035 -0.17821243
000240 b6 d6 98 3d 52 6f 66 3c b4 a9 b2 3d 8c 7b 2c 3e
       0.07462828 0.014064627 0.087237746 0.16844004
000250 27 7d 1a 3e 35 d4 78 bc 95 09 e8 bd fb 76 59 3e
       0.15086804 -0.015187313 -0.113299526 0.21236794
000260 f9 d4 66 3d b4 b2 39 be 8f ec 9f 3d 6a 1d 31 be
       0.05635545 -0.18134576 0.07808792 -0.17296377
000270 30 de e3 bd 75 6d c5 bd 67 3f 3d 3e 41 f7 19 3e
       -0.11126363 -0.09640018 0.18481217 0.15035726
000280 f2 99 e9 bd 07 08 31 bd 91 57 61 3c 62 c1 3d 3e
       -0.11406316 -0.043220546 0.013753788 0.18530801
000290 92 0e 84 b9 b7 99 47 bc 6a ba d8 bc b2 a6 90 bb
       -0.00025187858 -0.012182645 -0.026456077 -0.004414403
0002a0 2d 56 24 bb 8d 72 0c be 40 24 1c be d5 f3 07 3e
       -0.0025075779 -0.13715573 -0.15248203 0.13276608
0002b0 86 ab 8c 3c 0d 8f 73 3d 7c b2 36 3e 43 07 03 be
       0.017171632 0.059462596 0.17841524 -0.12795739
0002c0 47 42 c2 bd 31 d1 df 3d d6 9e 2e be e1 f0 2e bd
       -0.09485298 0.10928572 -0.17052779 -0.04271019
0002d0 d0 fd ee 3a 5e f3 9d bd bb cf 05 3d 8b 2c eb bd
       0.0018233601 -0.07712434 0.03266881 -0.11483105
0002e0 7f b9 0f be 67 28 5f 3d 05 c9 46 3e ab 6a b3 3c
       -0.14035605 0.05448189 0.1941262 0.02190145
0002f0 c5 f3 cc bd ca db 7e 3d 7b 2f 3c 3e a7 0f 1d bb
       -0.10007433 0.062221326 0.18377487 -0.0023965628
000300 62 80 a9 bd 41 27 b1 bc f7 8f 31 be 49 14 84 3d
       -0.0827644 -0.021625163 -0.17340074 0.064491816
000310 9e 4e e5 3c 2e 6c 8e 3d d9 cc a9 3d d6 c0 49 3e
       0.02799159 0.069542274 0.08291025 0.19702467
000320 06 f6 4b 3e 40 54 24 3e 60 1e 1b 3e 27 53 5a be
       0.19918069 0.16047764 0.15148306 -0.21320783
000330 f4 6d 5f 3e ac 63 28 be 73 58 5b 3d 9f be 96 bc
       0.21819288 -0.16444272 0.05355115 -0.018401442
000340 a2 3f 67 bc 33 d6 ed 3c a2 e1 9c bd d6 15 53 3d
       -0.014114292 0.029032802 -0.076602235 0.051534496
000350 8d b4 cf bd 71 13 b5 bd 7d e9 41 3e 3f 44 34 3e
       -0.10141859 -0.08841599 0.18936725 0.17604159
000360 c2 6e cf bc a3 fa ef bd c5 99 e0 3d e8 00 64 bc
       -0.025321368 -0.11717727 0.10966829 -0.013916232
000370 f5 15 07 be 33 f1 35 be b0 9c d1 bd 2b 1c bc bd
       -0.1319197 -0.17767791 -0.10234964 -0.0918506
000380 ec f3 68 be 1d 55 18 be 00 b4 de bb 9d 92 34 3c
       -0.22749299 -0.14876218 -0.00679636 0.011021283
000390 b3 ac 74 3d af a7 a6 3d a1 fe 47 be 01 1f 81 3d
       0.05973501 0.08137452 -0.19530727 0.06304742
0003a0 16 fa 4b bd 98 fe 0d be ac 40 42 3e 91 a4 36 3e
       -0.049799047 -0.13866651 0.18969983 0.17836215
0003b0 81 48 3c 3e e2 41 fe bd b2 8b 2a be 48 46 3d be
       0.18387033 -0.1241491 -0.16654852 -0.18483841
0003c0 7e c5 ba 3c 8e dc 77 bc d5 ce f1 bd 5f e1 5e be
       0.02279925 -0.015128268 -0.11807028 -0.2176566
0003d0 19 ba 17 be 76 97 d9 3c 2e c2 c5 ba 03 f1 5e 3c
       -0.14817084 0.02656148 -0.0015087777 0.013607266
0003e0 bb 26 c7 bc 94 48 14 be 33 e2 2e 3d 3e 27 02 be
       -0.02431046 -0.14480811 0.04269619 -0.12710282
0003f0 a9 f3 a1 3d 3e 13 c7 3c f9 64 69 3c e4 56 2f be
       0.079078026 0.024301168 0.014245265 -0.1712299

unembed.weight f4 [59, 256]
000000 a8 5c 39 3d de 73 23 3d a7 f7 71 3c ae 3c 96 bd
       0.04525438 0.03990542 0.014768518 -0.073357925
000010 ad 6a fd 3d 00 28 87 bc bb 8e a7 bd 5d 0a 9d 3c
       0.123738624 -0.016498566 -0.081815206 0.01916998
000020 8b 2d 13 bd 42 3d 89 3c f5 3b f0 3d a0 69 0e be
       -0.035932105 0.016752843 0.11730186 -0.1390748
000030 a4 6f 6d bd 12 5e 3c bd 21 95 11 be e3 e6 97 bd
       -0.057967797 -0.04598815 -0.14217044 -0.07417085
000040 08 a0 56 3d 1c 69 1a bd c8 9c 9e 3d 0c de e5 bd
       0.05239871 -0.037697896 0.077447474 -0.11223993
000050 22 50 8d bd 05 19 85 bd 71 7b 89 3d 54 d4 30 be
       -0.0690005 -0.06498913 0.06712998 -0.17268497
000060 49 b9 4c 3e 38 fe 0e be 22 3f 24 be 8f 4a 04 3e
       0.19992556 -0.13964164 -0.16039708 0.12919067
000070 0d 39 32 be d1 fd 2e be 52 05 16 3e f5 c8 2c be
       -0.17404576 -0.17089011 0.14650467 -0.16873534
000080 ab 53 f8 bd 17 4b c5 3d 1f 24 09 3d ea 07 37 a0
       -0.121253334 0.09633463 0.033481713 -1.5503321e-19
000090 44 59 89 bc b2 37 a2 bd 9a 74 28 be e5 96 97 3d
       -0.016766198 -0.07920779 -0.1645073 0.07401828
0000a0 70 4f 52 3a ac 17 1c bc b6 9a d5 bb 18 04 f0 bc
       0.00080227014 -0.009527128 -0.006518687 -0.029298827
0000b0 0b 61 0b 3e 76 0a 04 be 0e 29 3e ba 79 16 38 be
       0.13611238 -0.12894616 -0.00072540424 -0.17977323
0000c0 3f c5 1a bc 90 6c 82 3e 54 55 1b bd 9b d8 03 3e
       -0.009446441 0.25473452 -0.037923172 0.12875597
0000d0 53 f3 47 3e 8f 29 94 3d 7f ff 22 3d 05 e4 94 3d
       0.19526415 0.07234489 0.03979444 0.07270054
0000e0 ac b1 3d be 72 55 d4 3d c6 d3 a4 3d f5 ab 34 3e
       -0.18524808 0.1036786 0.08048205 0.17643721
0000f0 56 5a 46 be e6 1e be bd 13 54 45 3e f9 af f1 3d
       -0.19370398 -0.09283237 0.19270353 0.11801142
000100 08 63 8d bd 25 a7 3d 3e 02 ab e9 3a 90 4b 88 bd
       -0.06903654 0.18520792 0.0017827454 -0.066550374
000110 32 06 e1 3d 14 e5 64 3e 53 32 0c 3e 57 10 42 bd
       0.1098751 0.22353011 0.13691072 -0.047378864
000120 6b 5f 18 3d 75 5b 4d be ba d2 b6 3d d3 f8 e3 3d
       0.037200373 -0.2005442 0.08926912 0.11131444
000130 a0 35 3f 3e 59 8e c6 bc 76 c7 73 3e c4 1d 14 be
       0.186728 -0.024237799 0.23806557 -0.1446448
000140 7e 6f d4 3d 40 ae dc bd 49 9c 1c 3e a1 e9 f7 bc
       0.10372828 -0.10775423 0.15293993 -0.03026277
000150 25 0c 69 bb a2 c5 88 3d b1 61 d9 bd 81 4e 33 be
       -0.0035560217 0.066783205 -0.10614336 -0.17510416
000160 9d 04 59 be 97 d5 c0 bd e7 74 3b be 24 63 e4 3d
       -0.21193166 -0.09415739 -0.18306313 0.11151722
000170 e3 b8 e1 3d 7d ea d4 3d 44 aa a7 bd 37 41 08 bc
       0.110215925 0.103962876 -0.081867725 -0.00831633
000180 af bc bd bd 88 c5 28 3d 3c bd 22 be 52 fe a4 3d
       -0.09264504 0.041204005 -0.158925 0.0805632
000190 09 01 17 3e b6 54 da 3d a3 c9 ac 3d c1 9f 6e bd
       0.14746489 0.106606886 0.08436897 -0.058257822
0001a0 12 29 fb 3c dd d7 ae bd 97 57 92 3d 63 51 41 be
       0.030659232 -0.085372664 0.07145613 -0.18878703
0001b0 19 75 5d 3e b6 19 06 3e d7 ad b8 3d e0 53 db bb
       0.216267 0.13095745 0.09017532 -0.0066933483
0001c0 6d c6 cb bc 97 ed 2f 3e 1d d3 2b be 2a 47 80 3c
       -0.02487489 0.17180477 -0.16779752 0.015658934
0001d0 d4 63 03 be 30 cd 4d bb ff 43 c6 3d 33 71 2a be
       -0.1283105 -0.003140282 0.09680938 -0.16644745
0001e0 91 bd 7b 3a a7 bc 31 3c 94 9b 50 3d 15 77 76 bd
       0.0009603138 0.010848201 0.05092962 -0.06017216
0001f0 8d ad 42 be e0 59 0e be f1 9d c1 3d 6d 00 f6 bd
       -0.19011517 -0.13901472 0.09453953 -0.120118
000200 40 75 83 bd 11 a8 04 bc cb ae 3e be 83 8f 33 be
       -0.06418848 -0.008096711 -0.18621366 -0.17535214
000210 9c 82 29 be 0d 74 0a 3e 31 8d ad bc 81 76 ae bd
       -0.1655373 0.13520832 -0.02118549 -0.085186966
000220 5c 69 06 3d 7a 31 da bc 7b f5 13 be 6c bc 93 3d
       0.032815322 -0.02663492 -0.14449112 0.07213673
000230 5c 61 fa bd a0 f0 35 3c db 86 b0 3d 21 31 34 3e
       -0.12225601 0.011104733 0.08619472 0.17596866
000240 2d 34 47 3e 79 d9 cd 3d 87 06 1f 3e 1e 32 fd bc
       0.19453497 0.10051245 0.15529834 -0.030907687
000250 8e d7 51 3e 88 b8 9c 3d 5a ee 1d be 00 e0 32 3c
       0.20492384 0.07652384 -0.15422955 0.010917664
000260 17 fa 88 bd c8 1a 3a 3d 9d ca 33 3e 88 d6 43 3e
       -0.06688326 0.045435697 0.1755776 0.19124806
000270 46 4f 16 be c7 03 13 be af 0b ff bd 2c 25 17 be
       -0.14678678 -0.1435691 -0.124534 -0.14760274
000280 fb 3f 4a be cd c6 36 be f0 aa 2a be c0 b3 91 3d
       -0.19750969 -0.17849274 -0.1666677 0.07114363
000290 46 58 80 3d 16 2b b2 3c 0b 42 51 3e da a4 c5 3d
       0.06266837 0.02174906 0.2043535 0.096505836
0002a0 bf 1e a4 bd 4a 2c 16 3e 1f 0b 64 3e 44 19 03 be
       -0.08013677 0.14665332 0.22269867 -0.12802607
0002b0 4d e2 bd 3b c1 43 66 bd 43 3f 72 3d 7e b6 1c 3d
       0.0057947994 -0.05621696 0.059142362 0.038259976
0002c0 22 56 3c 3e e5 95 d0 bd 38 26 40 3d 7c 6d b4 bd
       0.18392232 -0.1018484 0.04691145 -0.08809945
0002d0 a1 e2 43 3e d5 e5 d8 bd 12 dc 12 3a f5 45 20 3e
       0.19129421 -0.10590712 0.0005602251 0.15651686
0002e0 d0 fe 41 3d 88 cd fe bd e2 24 d2 bd 59 8c 35 3c
       0.04736215 -0.12441546 -0.10260941 0.011080825
0002f0 05 ee 70 3d 41 cc 33 3e 61 7f 2c 3d ba d7 ed 3d
       0.058820743 0.17558385 0.042113665 0.11613412
000300 ae 15 17 3e 5a 65 f0 3d 55 33 87 bd 52 86 ed bd
       0.14754364 0.11738081 -0.06601588 -0.11597885
000310 3a 3f 05 be 89 c5 94 bd 93 47 3b 3d 7c a4 1d 3e
       -0.130124 -0.07264239 0.045722555 0.15394777
000320 97 d6 35 be d8 48 8a bc 6b d9 ae bd 72 9a a8 3a
       -0.17757641 -0.016880438 -0.08537563 0.0012863411
000330 3a 5d e9 3d af e9 dc bc 44 23 03 3c ce 43 df bd
       0.11394735 -0.026966898 0.008004013 -0.109016046
000340 72 ff 42 3e e3 94 bc bd 4e 84 0e 3e cb bf c5 bd
       0.19042757 -0.092080854 0.13917658 -0.09655722
000350 09 74 43 3e 86 ed 76 bd 05 f7 78 bd f4 ed 97 bd
       0.19087233 -0.060285114 -0.06078245 -0.07418433
000360 54 a9 d6 3d d0 28 35 3e 1a 46 2f be eb e1 25 3e
       0.104815155 0.1769135 -0.17116585 0.16199462
000370 10 69 14 be 98 0f 46 ba 15 a2 6f 3b bf 29 9b bd
       -0.14493203 -0.0007555424 0.0036565114 -0.07576322
000380 07 00 53 bd fd 03 33 bc aa f1 2c 3e df 21 cb bd
       -0.051513698 -0.010926244 0.16889063 -0.0991857
000390 aa 99 aa 3d 99 98 16 be 90 e6 08 be d0 0e 07 3c
       0.0833009 -0.14706649 -0.13369203 0.008243278
0003a0 c7 34 43 3e b2 c2 a3 bd e6 19 57 3e e2 b9 a4 bd
       0.19063102 -0.079961196 0.21005973 -0.08043267
0003b0 db 56 b9 bd 4a d0 1c be b4 93 f2 bd 5f 61 50 b9
       -0.090497695 -0.15313831 -0.118445784 -0.000198727
0003c0 ae e3 e1 bd cd ba 17 bc 59 c9 b0 3d 06 26 a7 3b
       -0.110297546 -0.009260845 0.08632154 0.0051009683
0003d0 30 2f 66 bc bc 12 3c be a6 10 23 3e bd ce 41 bd
       -0.014049336 -0.18366522 0.1592432 -0.0473163
0003e0 ba f7 3b be 8a 7b 34 be 30 b5 09 3d 58 17 f3 3d
       -0.18356219 -0.17625251 0.03362006 0.11869687
0003f0 49 8f 3d be db 5b c9 bd f9 db e0 bc 43 d8 af 3d
       -0.1851169 -0.09831973 -0.027448641 0.085861705

l1.weight f4 [256, 256]
000000 06 dc 62 bd 2d 10 bc 3c 77 77 49 bd 20 9a b7 3d
       -0.055385612 0.022956932 -0.049186196 0.08964944
000010 a2 14 a3 bc 9e 5f 55 3d 54 ca 0a bd da ee 0c ba
       -0.0199073 0.05209314 -0.03388436 -0.0005376168
000020 c3 d8 03 bd 78 76 8b 3d f8 b3 cf 3d 2c 72 a0 bd
       -0.032189142 0.068097055 0.10141748 -0.078342766
000030 ff f7 84 3c c2 98 99 3c 35 7c c9 3c 51 64 df 3c
       0.016231535 0.018749598 0.02459536 0.027269514
000040 70 e5 09 3c 4d 3e 75 3d 4e e5 bb bb c9 98 a0 3c
       0.008416519 0.059873868 -0.0057341224 0.019604104
000050 4c bd 83 bd 0a a1 d9 3b 61 3f 09 bd df 6c 75 bc
       -0.0643259 0.006641512 -0.03350771 -0.01497957
000060 58 79 8b bd 4d ce 7e bb c2 9b 98 bb e3 a7 d3 bc
       -0.06810254 -0.003888029 -0.0046572397 -0.02583689
000070 fc 06 87 3d 52 df ca bd 73 97 16 3d 09 05 83 bd
       0.06593129 -0.09905876 0.036765527 -0.06397445
000080 77 ff c4 bc 90 66 64 bd 92 f3 82 bd 58 30 76 bd
       -0.024047596 -0.055761874 -0.063941136 -0.060104698
000090 a9 76 41 3d 7e 90 0e 3d 5e 37 02 bc fb e2 dd 3c
       0.047232304 0.034805767 -0.007947771 0.027085772
0000a0 10 53 be 3b 82 32 be 3b 07 84 6a bd 0e 9c 97 3d
       0.0058082417 0.005804361 -0.057254817 0.07402812
0000b0 3d 73 54 bd ee 84 9d 3d 08 8d 21 bd 76 4a c0 bd
       -0.051867712 0.0769137 -0.03944114 -0.09389202
0000c0 3e b8 c0 bc 91 a0 1f 3d df 8f cb bd ab fd 6b 3d
       -0.023525354 0.038971487 -0.099395506 0.057614964
0000d0 0a 2e 63 bc 85 a1 02 bc c0 88 4a bd 3b a3 64 bc
       -0.013865957 -0.00797308 -0.04944682 -0.013954933
0000e0 2f 19 27 bd 58 27 9a bd cb d6 9d bd 42 b4 f3 3c
       -0.0407955 -0.075270355 -0.07706984 0.02974904
0000f0 28 57 af 3d e0 e3 b5 3c c6 ea 4c bc bc 39 e3 bb
       0.085615456 0.022203386 -0.012507146 -0.0069343727
000100 ae f3 56 bb f8 99 3b bd 49 d8 80 3d c9 85 58 bd
       -0.0032799053 -0.045801133 0.06291253 -0.052861962
000110 dd 43 70 3d d5 8c d5 3c 62 99 5a bd bf 74 1f bd
       0.05865847 0.02606813 -0.053368933 -0.038929697
000120 be f2 61 3c 33 6a 94 bc ab 72 8f bd 3e 52 be 3d
       0.013790784 -0.018117046 -0.07004293 0.0929303
000130 2b 35 43 bc 8e 49 fb bc 77 cb 57 bc c8 91 bf bb
       -0.011914532 -0.030674722 -0.013171068 -0.005846236
000140 0f 2a 66 bc 02 ae 0f bd 13 44 da bc 62 01 ff 3d
       -0.0140481135 -0.035078056 -0.026643788 0.124514356
000150 47 96 1a 3d 74 06 4b 3d 68 d9 8b bd 5f a2 1a bd
       0.037740972 0.0495667 -0.06828576 -0.037752505
000160 42 86 c2 bc b7 4d 54 bc 9b 2d 0d bc ef fe 3c 3d
       -0.02374566 -0.012957982 -0.00861683 0.04614156
000170 a9 f7 93 3d 9e cd a7 3c d0 a6 83 bd b7 ec fc bc
       0.07224972 0.020483788 -0.06428301 -0.030874593
000180 ac 39 d2 3b 9d 4b 7b 3d 46 39 8e bb f3 61 13 3b
       0.0064155664 0.061351407 -0.0043403236 0.0022488802
000190 84 e6 61 bd 0a 63 03 bc ef 0c 21 bd 84 93 c0 bd
       -0.055151477 -0.008019218 -0.039318975 -0.094031364
0001a0 ec 85 1f 3d 34 80 ba 3d 74 ed 26 3c 6a 97 b9 bd
       0.038946077 0.09106484 0.010188449 -0.09062083
0001b0 3f cf 18 3d b4 5d 19 bc b3 75 75 3d 32 6b b9 bc
       0.03730702 -0.0093607195 0.0599267 -0.022634123
0001c0 d2 90 80 3d 43 56 2a bd 19 4b b9 3d f3 59 1f 3d
       0.06277622 -0.04158617 0.09047527 0.03890414
0001d0 b1 0d 0c 3d f3 e8 22 3c 98 b2 9c 3c 68 bc 09 3d
       0.034192745 0.009943235 0.019128129 0.033626944
0001e0 65 66 2a bd d1 7f 54 3d 28 a2 17 bd 83 f3 ac 3c
       -0.041601557 0.051879708 -0.03701988 0.02111221
0001f0 17 4b 3d bd 2e 5a 21 3d 97 f3 87 bd a3 31 0d bd
       -0.04621419 0.039392643 -0.06638258 -0.034471165
000200 db d9 a5 bc fd b6 30 bc 1b d7 84 bb 33 9d 5a bd
       -0.020245483 -0.010785815 -0.004053963 -0.053372573
000210 29 2f 98 bd 02 9c fc bb 53 20 ec 3c 6d a7 ff 3b
       -0.0743087 -0.0077090273 0.028824007 0.007801941
000220 5c 20 2f 3d 35 c9 7a bd d9 27 8e 3b 77 a7 c0 ba
       0.04275547 -0.061227042 0.0043382463 -0.0014698346
000230 f1 b9 43 3d 64 89 d9 3b 4d d2 31 3d b6 ed 8d bc
       0.04778475 0.0066386927 0.04341345 -0.017325263
000240 69 19 88 bd 04 f0 93 bd c2 e7 f0 3d 2a fc 61 bd
       -0.066454716 -0.07223514 0.11762954 -0.055172123
000250 53 21 7a 3d de 14 df 3c 22 eb 37 bb 1f 26 a5 3d
       0.061066937 0.02723163 -0.0028063734 0.08063912
000260 25 b5 12 bd 76 bd a8 bd 3f c8 90 bd ae 6c 20 bd
       -0.035817284 -0.08239262 -0.07069444 -0.039166145
000270 2b 6a 84 3d 26 4c 42 3b d0 45 af 3d e1 e7 42 3d
       0.064655624 0.0029647439 0.085582376 0.04758442
000280 76 46 43 3d e5 8a cd bd 3e 83 2e 3d b5 76 0b 3d
       0.04767462 -0.10036258 0.04260563 0.034048755
000290 61 3a 3f bd 8d b5 27 bd 7d 63 24 bd c5 86 ad bb
       -0.046686534 -0.040944625 -0.040133942 -0.005295607
0002a0 44 ac 4d bd 67 4b 4f 3d b2 a5 7c bb 1a b1 c6 3d
       -0.050213113 0.05060902 -0.003855091 0.09701748
0002b0 c4 db 21 3d 12 c7 27 3d 02 54 19 3c 1b b5 10 bc
       0.039516225 0.040961333 0.009358408 -0.008832241
0002c0 c6 5e 4e bd 72 b3 94 3d 61 32 76 3d 9c 2b 03 3c
       -0.05038335 0.07260789 0.06010664 0.008006003
0002d0 9d c2 b3 bd 6c 42 45 3d 0c ef 5d 3d 3a ce 6b bd
       -0.08777354 0.048159048 0.05418305 -0.05756972
0002e0 93 53 68 bd f4 f8 69 bd 9b 89 1f 3d 11 f8 ce 3c
       -0.056720328 -0.057122186 0.03894959 0.025264772
0002f0 15 e8 c0 3c bf ca a8 bd 0f e0 4c bd 22 73 d8 3d
       0.023548165 -0.08241796 -0.050018366 0.10568835
000300 42 ed 38 3d 59 da e0 bc 82 97 93 bd c5 24 d4 3c
       0.04514814 -0.027447866 -0.07206632 0.02589644
000310 1c 6b 5d bd 73 74 b1 bd 6a cc 9e 3d 26 cc ea 3b
       -0.054057226 -0.08664789 0.07753833 0.0071654497
000320 5a 6d 68 3d 09 0b e6 bc 20 24 f8 3c fe 31 85 3c
       0.05674491 -0.028081434 0.030290663 0.01625919
000330 b5 0a 1b 3a a6 f1 4c 3d 3e 97 b1 3d e9 11 15 bd
       0.0005914376 0.05003514 0.08671425 -0.036394034
000340 14 bb 05 bc dd 63 00 bc 0a 4d 43 bd 2f 09 c0 bd
       -0.008162279 -0.007836309 -0.047680892 -0.09376752
000350 a7 be e6 bd 3d 75 3d 3d 53 52 53 3d d2 ca 74 3d
       -0.11266833 0.046254385 0.051592182 0.059763737
000360 60 8c ad bd bd 25 8d bb 2e a2 8b bc 05 80 b5 bc
       -0.0847404 -0.0043074773 -0.017045107 -0.022155771
000370 f6 c1 86 3b be 31 18 3d 2b e9 8b 3b 32 8f af 3a
       0.0041124774 0.037156813 0.004269739 0.0013394116
000380 de 3f ba 3c a5 d3 a4 3d c5 e4 7e 3c 2b dd 91 3d
       0.022735532 0.080481805 0.015557473 0.071222626
000390 34 65 23 3d 38 1d 5b 3c 6f 81 4e bd af ee 51 bd
       0.039891437 0.0133736655 -0.050416406 -0.051253017
0003a0 08 be 89 bc f7 15 f9 bc 6a d5 d5 3c 97 e3 c9 bd
       -0.016814247 -0.030405981 0.02610274 -0.098578624
0003b0 ee 3b b9 3d a9 72 fa bc a5 22 84 bd 33 13 e0 3c
       0.09044634 -0.030572252 -0.064519204 0.027352905
0003c0 fb ac 60 bd 94 4e 8c 3c 31 af c3 bc b0 85 80 bd
       -0.054852467 0.017127313 -0.023887249 -0.06275499
0003d0 fc 77 db bc 26 f2 56 3d ab b7 2a 3a 78 3d eb bc
       -0.026790611 0.052477024 0.0006512354 -0.028715834
0003e0 4b ff 5a 3c 4c 6d cc bd c7 3b 45 bd f3 8f e6 3c
       0.013366531 -0.09981784 -0.04815271 0.028144812
0003f0 95 22 5b 3b 64 5b 5c 3d ba 36 9a bc 87 50 cc bd
       0.003343736 0.053798094 -0.018824924 -0.09976297

l1.bias f4 [256]
000000 62 14 f8 3d 6e 6f 81 3e da 8b ed 3d bd 78 30 3e
       0.12113263 0.25280327 0.1159894 0.17233558
000010 3e a0 ba 3c 00 59 29 3e d4 52 25 3e 37 04 52 3e
       0.022781488 0.16537857 0.16144878 0.2050942
000020 da e6 5e 3e 7b 6e 4a 3e 06 14 5c 3e 7a fc 2c 3e
       0.2176775 0.19768707 0.21492013 0.16893187
000030 dc b6 0c 3e df 64 1c 3e 9c 84 f6 3d cc 7f 7e 3e
       0.1374163 0.15272854 0.12037012 0.24853438
000040 01 1a 25 3c 0e bf 13 3e fd 0a 0f 3e aa aa 19 3e
       0.010077001 0.1442835 0.13969035 0.1500651
000050 94 14 f9 3d 91 29 f5 3d b9 8e 21 3e 0c b5 42 3e
       0.12162128 0.11970819 0.157771 0.19014376
000060 ab 61 01 3e 75 2a 08 3e 99 8e 44 3e 08 0f 1a 3e
       0.12634914 0.13297446 0.19195022 0.15044796
000070 8c d3 17 3e 24 eb 2c 3d 5f 75 ad 3d 90 3e 4c 3e
       0.14826792 0.042216435 0.084696524 0.1994574
000080 27 a6 0f 3e 45 59 0a 3c d4 8f 2d 3e b7 1a ff 3d
       0.14028226 0.008444135 0.16949397 0.12456267
000090 2c f0 df 3d 61 02 05 3e 91 c2 11 3e ba 2f 10 3e
       0.10934481 0.12989189 0.14234377 0.14080706
0000a0 d5 28 59 3e 4f 2e 23 3e b7 1f 19 3e 3c 2d e3 3d
       0.21206982 0.15935634 0.14953505 0.11092612
0000b0 9b 34 23 3e 1e d0 1b 3e 93 e3 f7 3d 23 f9 34 3e
       0.15938036 0.15216109 0.12103953 0.17673163
0000c0 76 31 03 3e 2a af 05 3e 1e 7e 34 3e ff ba 03 3e
       0.12811837 0.13055101 0.17626235 0.12864302
0000d0 bd bf 36 3e 4c 1f 3f 3e 36 7c c8 3a 57 21 22 3e
       0.1784658 0.18664283 0.0015295807 0.1583303
0000e0 b5 69 56 3c 73 00 04 3e b7 08 5c 3e 9f 1d a9 3d
       0.013086726 0.12890796 0.214877 0.08257603
0000f0 91 ac 1c 3e 66 2b 27 3d e5 27 11 3e f5 be c7 3b
       0.15300204 0.040812872 0.14175375 0.006095762
000100 2a ed 26 3e 09 8d 1c 3e fb 97 f1 3d 46 83 03 3e
       0.16301408 0.15288176 0.11796566 0.12843046
000110 24 31 b2 3d ca 52 f4 3d 18 10 3f 3e ac ac 10 3e
       0.08700779 0.11929853 0.18658483 0.14128369
000120 d7 ae 06 3a aa 37 ff 3d f8 a2 14 3e 57 83 d7 3d
       0.00051377475 0.12461789 0.14515293 0.10523098
000130 c4 0c 43 3e 33 74 31 3e d6 a4 ee 3d b4 46 03 3e
       0.19047838 0.17329483 0.11652534 0.1281994
000140 39 51 c3 3b f5 df 1f 3e 53 cb cb 3d 95 da 1a 3e
       0.00596061 0.15612777 0.099508904 0.15122445
000150 ef 7e fa 3d bf d9 29 3e 7d b4 3c 3d 9e 7f 0c 3d
       0.12231242 0.1658697 0.046070565 0.034301393
000160 1c f3 39 3e 81 59 08 3e 6b 31 28 3e 79 bc 0e 3e
       0.18159145 0.13315393 0.16425101 0.13939084
000170 26 19 0e 3e df f9 17 3e d5 6d 0a 3e 63 44 31 3e
       0.13876781 0.14841412 0.1351846 0.17311244
000180 70 50 7f 3a cd 37 b4 3c 85 47 83 3e 64 1e 56 3e
       0.0009739464 0.021999264 0.25640503 0.2091003
000190 2b 61 49 3e 4f 36 3c 3e 7f c3 eb 3d 1c 86 d1 3d
       0.19665973 0.18380092 0.11511897 0.102306575
0001a0 29 23 cc 3d a7 72 4d 3e 06 c5 21 3e 29 10 99 3c
       0.09967644 0.20063268 0.15797815 0.018684464
0001b0 7e da 0f 3e ee 37 0b 3e 39 d9 43 3e 13 d9 20 3e
       0.14048192 0.13595554 0.19125833 0.15707807
0001c0 79 f5 14 3e ee 67 c5 3d 9d 2a a3 3d 10 b9 e5 3c
       0.14546765 0.09638964 0.07967112 0.028042346
0001d0 d7 52 24 3e 6e 09 c7 3d 90 4a 1c 3e 1c cb e3 3d
       0.16047226 0.097185954 0.15262818 0.111227244
0001e0 1b 85 cb 3d ef 1c 15 3e da 7b 5a 3e bc b7 8d 3a
       0.09937497 0.14561819 0.21336308 0.0010812203
0001f0 60 4d 25 3e 33 cd e2 3d 93 0a bb 3d 67 08 84 37
       0.16142797 0.11074295 0.09132876 1.5739539e-05
000200 6d db 74 3e 8a dd c9 3d e0 4e 6b 3d d9 fb 11 3e
       0.2391183 0.09856708 0.057448268 0.14256229
000210 38 11 31 3e 0f 1d 52 3e 1a fb 13 3e ca 89 5d 3e
       0.17291725 0.20518897 0.14451256 0.21634594
000220 b9 cf 8b 3e eb 67 f2 3d e3 2f 21 3e 0d 71 61 3c
       0.27306917 0.11836227 0.15740924 0.013759864
000230 85 a8 31 3e 49 92 33 3e 57 46 2f 3d 06 f6 40 3e
       0.17349441 0.17536272 0.04279169 0.1884385
000240 f3 9b 2f 3e ff d0 11 3e 4f 38 5f 3e 11 51 14 3e
       0.17149334 0.14239882 0.21798824 0.1448405
000250 b3 19 3f 3c 44 ce 3d 3e 5c 02 1d 3d 60 17 ea 3d
       0.011663842 0.18535715 0.03833233 0.1143024
000260 90 e2 d6 3d 48 f5 79 3d 75 29 60 3c ae b7 b4 3d
       0.10492432 0.061024934 0.013681759 0.088240966
000270 b9 59 14 3e 87 c5 09 3c 9a 84 b2 3d 3d 07 2a 3e
       0.14487351 0.008408911 0.08716698 0.16604324
000280 2a c4 ac 3c a3 24 a2 3b 74 aa 04 3e eb 71 1f 3e
       0.021089632 0.004948215 0.12955648 0.155708
000290 97 fd da 3d 64 dd d8 3d 42 73 40 3e c5 3b e7 3d
       0.106929 0.10589102 0.18793967 0.11290697
0002a0 36 35 4c 3e b1 e8 0d 3e b6 03 27 3e d5 62 7f 3e
       0.19942173 0.13858296 0.1631001 0.24940045
0002b0 5f fa 14 3e 7a 89 08 3e 25 a6 c3 3d f2 67 3e 3e
       0.14548634 0.13333693 0.09553174 0.1859434
0002c0 71 35 0c 3e ae 2c 23 3e f9 83 68 3e a2 96 08 3e
       0.13692261 0.15935013 0.22706594 0.13338712
0002d0 e2 f5 08 3b 10 d8 11 3e 99 a5 4a 3b 44 ca 2e 3e
       0.002089851 0.14242578 0.0030921458 0.17069346
0002e0 05 37 25 3e f8 40 2d 3e d8 25 f7 3d bb 56 06 3e
       0.1613427 0.16919315 0.12067765 0.13119023
0002f0 17 fd 45 3e f9 36 1c 3b b1 ca 93 3c 0a b8 06 3e
       0.19334827 0.0023836477 0.018040987 0.13156143
000300 d3 ee e2 3d ab c8 16 3e b2 ae c5 3d 36 f5 04 3e
       0.11080708 0.14724986 0.09652461 0.12984166
000310 50 67 aa 39 7c 4f 2f 3e 2f 88 25 3b 57 e4 41 3c
       0.000325019 0.17120165 0.0025258174 0.011834226
000320 10 bf 1b 3e 51 49 03 3e f7 1c 39 3e 32 44 06 3e
       0.15209603 0.12820937 0.18077455 0.13111952
000330 f0 66 01 3e 53 cc 2c 3e 08 ec 05 3e 1c bf f9 3d
       0.12636924 0.16874819 0.1307832 0.12194654
000340 d7 98 5f 3e f9 96 3a 3e 63 94 5a 3e 5d 4e 2c 3e
       0.21835648 0.18221654 0.21345668 0.16826768
000350 19 5f 0c 3e 31 ef d2 3d 2f 62 9f 3d 82 53 1f 3e
       0.13708152 0.102995284 0.07782399 0.155592
000360 85 00 1e 3e 76 62 0f 3e d6 2e 00 3e c4 e5 32 3e
       0.15429886 0.14002404 0.12517866 0.17470461
000370 16 08 df 3a d3 35 01 3e e1 f9 20 3e 54 81 03 3e
       0.001701596 0.12618189 0.15720321 0.12842304
000380 2c bb 5e 3e 7a 78 56 3e 2d 65 1d 3e 31 17 22 3e
       0.21751088 0.20944396 0.15370627 0.1582916
000390 8f 2b f5 3d bb 11 87 3d 40 03 d2 3d 6a 46 c7 3d
       0.11971199 0.06595179 0.10254526 0.09730227
0003a0 29 ea 12 3e 8e 8e ee 3d 4b 13 a5 3a 1b a9 fe 3d
       0.14347138 0.11648284 0.0012594251 0.12434598
0003b0 98 53 9d 3d a2 dc 1c 3e 0b d6 2e 3e 15 b9 1c 3e
       0.0768196 0.1531854 0.17073838 0.15304978
0003c0 76 83 1b 3e 88 2f 4c 3e f9 33 31 3e f3 2f 2c 3e
       0.15186867 0.19940007 0.17304982 0.16815166
0003d0 88 40 23 3e e6 2e 20 3e c6 1b a5 3d b6 4e 2d 3e
       0.15942585 0.1564289 0.08061938 0.16924557
0003e0 88 3e 02 3e d2 76 c9 3d 5d c4 fa 3d a9 9e 56 3e
       0.12719166 0.09837116 0.122444846 0.20958962
0003f0 74 35 d8 3d 3e 86 64 3e 9b 03 20 3e da f3 ee 3d
       0.105570704 0.22316834 0.15626375 0.11667605

l2.weight f4 [256, 256]
000000 91 3a 3a 3d e7 a2 af bb f3 fd 43 bb 63 61 f5 bd
       0.04546601 -0.0053599956 -0.0029906004 -0.11981466
000010 76 d9 39 3c f2 0a 69 3d 8b 2c 6d 3d a4 46 84 3d
       0.011343351 0.056895204 0.057903808 0.06458786
000020 bb 52 30 3e eb f2 19 bd ed 90 b6 3d d3 56 91 3d
       0.17219059 -0.03758518 0.08914361 0.070966385
000030 82 a4 24 3e 10 3b a0 3d bf b3 00 be c7 21 72 bd
       0.1607838 0.07823765 -0.12568568 -0.059114244
000040 cc 0e 98 3b 8a c3 d5 3c 8f 70 56 bc 2d 5a 8d bd
       0.004640436 0.026094217 -0.0130883595 -0.06901965
000050 ce 7a 16 3d 0c c0 56 3d 46 cc 8a 3c b1 ad 0e bd
       0.03673821 0.052429244 0.016943108 -0.034833614
000060 b8 7c 2f bd e0 e1 92 3a 4e 55 04 be 79 29 42 3d
       -0.04284355 0.0011206232 -0.12923166 0.047402833
000070 a3 8a 15 bd 6c 4a ed bb 2f 41 95 bb 82 04 30 3e
       -0.036509167 -0.007241538 -0.0045548896 0.1718922
000080 34 55 98 bd 83 dc 23 ba de 88 f9 3b 39 58 99 bd
       -0.07438126 -0.00062508153 0.007615193 -0.0748753
000090 ff 48 5b ba 2b 75 0a 3b ef 90 ed 3b 0b fe cb 3c
       -0.0008365064 0.0021126966 0.0072499434 0.02490141
0000a0 ae c4 58 bd 3f 5c 0e 3d 75 3f b9 bd c1 1a 7c bd
       -0.052921943 0.03475594 -0.090453066 -0.061548952
0000b0 c6 c4 0e 3c 31 5b 1a 3e 17 e2 03 3c 97 5c a2 3d
       0.008713907 0.1507385 0.0080495095 0.07927816
0000c0 ae fd ab 3d b4 97 a9 bc a5 2f 33 3d 82 fb 80 3d
       0.08397995 -0.02070222 0.04374661 0.06297971
0000d0 10 95 50 bd f7 5c c7 3d 08 a6 8f b9 c1 c5 08 3e
       -0.050923407 0.097345285 -0.00027398788 0.13356687
0000e0 b7 0a 9a 3a 22 99 a9 3d 6d 18 fe 3d f8 8f 22 3d
       0.0011752461 0.08281161 0.124070026 0.03968808
0000f0 f4 f1 fa bc b5 51 9e 3c f8 eb a3 3d 47 15 36 3b
       -0.03063295 0.01932607 0.08003992 0.0027783678
000100 13 e1 4e bd 7c 8a 9c bd 0f 46 1b bc 37 e8 05 be
       -0.050507616 -0.07643601 -0.0094771525 -0.13076864
000110 42 86 be 3c e8 a2 89 3d d2 90 f1 bd a5 e3 d2 bc
       0.023257378 0.06720525 -0.117952004 -0.025743315
000120 6d dc d9 b8 11 93 c3 3c 95 59 af 3c 34 f7 2d 3b
       -0.00010388424 0.023873838 0.02140502 0.002654505
000130 6b fb 8e 3d 0d 6c 3e 3d 1c 7a 45 3c 5a ce b3 3d
       0.06981548 0.046489764 0.012053039 0.08779593
000140 6e fa e7 39 dd 2c b0 bc 43 66 ac 3d f1 21 ea 3d
       0.00044246338 -0.021505767 0.084179424 0.11432255
000150 71 df ee 38 ae b0 0f bd 4b f7 31 3c f4 79 47 3c
       0.000113903436 -0.035080604 0.010862182 0.012175072
000160 71 ba 0f bd 3c 53 2e bd 99 c1 df 3c 01 64 2d 3d
       -0.035089914 -0.042559847 0.027313994 0.0423317
000170 ca 56 45 bd 6f 78 c4 3c aa bd 59 bd d5 b7 ff 3c
       -0.04817847 0.023983208 -0.053159393 0.031215588
000180 8e 21 ad 39 e2 38 6e bb ba 8b 47 bd b8 49 3a 3d
       0.00033022132 -0.0036349823 -0.048717238 0.04548046
000190 12 2b 8f 3d a6 53 7f bd 94 28 a3 3d a8 df 64 3d
       0.06990637 -0.062335633 0.07966724 0.055877358
0001a0 47 49 23 bd 5e 64 fd bc 20 35 ea 3a cf d8 1a 3b
       -0.039864805 -0.030931648 0.0017868616 0.0023627763
0001b0 3e 49 94 3d 34 ef ae 3d 61 e7 f0 bc 45 66 a1 bd
       0.07240532 0.08541718 -0.029407205 -0.078808345
0001c0 78 18 ef bd 5b 7e 24 3d 60 ad 17 bc 90 3a 0c 3b
       -0.11674589 0.040159564 -0.009257644 0.002139721
0001d0 d5 32 78 3d f0 e9 2b bc 04 ef c0 3c 73 1d 2a 3d
       0.060595352 -0.010492787 0.023551472 0.04153199
0001e0 14 2f 45 bc 54 0d 6c bc 9f 3d c7 3b 5f f9 a6 39
       -0.01203515 -0.014407475 0.006080344 0.00031847783
0001f0 89 04 d4 3d a1 ae c6 3d 94 4e 47 bd b7 5a ec 35
       0.103524275 0.097012766 -0.048658922 1.7609772e-06
000200 be c8 eb 3c f4 05 55 3c 5c d2 2d bc 75 8a b6 3c
       0.028782245 0.013001908 -0.010609236 0.022282818
000210 65 aa 72 bb 80 df b9 3d c6 57 b9 3d a9 e1 bc 3c
       -0.0037027833 0.09075832 0.090499446 0.023056822
000220 da b2 63 bd 84 3d 65 3c aa 04 8c bd 47 44 ce 3b
       -0.055590488 0.013991717 -0.06836827 0.0062947604
000230 76 0f 5a 3d 78 18 49 3d 4e 48 0b 3d 98 38 14 3e
       0.0532374 0.0490956 0.034004502 0.14474714
000240 dc bb 0b 3d 83 10 4e 3d 9d e1 5a 3c a0 7a cb 3c
       0.034114704 0.050308716 0.013359454 0.024838746
000250 00 0b a1 3b 00 2e 0c be 26 09 9b 3c c3 e8 de 3c
       0.0049146414 -0.13689423 0.01892526 0.027210599
000260 92 5a a3 3d bd c2 a2 bc 67 29 9d 3a 2f 6e 04 3d
       0.07976259 -0.01986825 0.0011990488 0.03233164
000270 72 b1 32 bd e1 c5 11 3b 74 4e ef bc 87 58 9d 3d
       -0.043626256 0.002224319 -0.029212214 0.07682901
000280 a5 32 24 3c cf e4 26 b9 69 45 ac 3d 5a f0 b8 3d
       0.01002184 -0.00015916231 0.084116764 0.090302184
000290 66 2a f1 3c 6b fa 79 bc e9 05 0d be 9a 5a 45 bd
       0.029439162 -0.015257458 -0.13771786 -0.048182108
0002a0 7c 3e 3c 3e 60 a1 03 be 13 c2 af 3c 70 b2 c2 3d
       0.18383211 -0.12854528 0.021454846 0.095066905
0002b0 8d 8c a0 3d 98 53 52 3d 9e 63 63 3d c8 93 11 3e
       0.07839308 0.051349252 0.055514924 0.1421653
0002c0 98 a0 9b 3d f8 36 31 bc 1f bc a9 bc 25 b4 05 bd
       0.0759899 -0.010816328 -0.020719586 -0.032642502
0002d0 50 f8 a3 b9 54 ff b2 3d d9 12 9c 39 63 91 21 3d
       -0.0003127479 0.08740106 0.0002976868 0.039445292
0002e0 b8 b6 5e 3c 7a cc 2c bd f9 44 53 3d 90 5b db 3d
       0.013593368 -0.04218719 0.05157945 0.107108235
0002f0 18 bd 90 bc 0b fe bd b8 bc 7e 69 3c 36 36 90 bd
       -0.017668292 -9.0595415e-05 0.014251407 -0.0704159
000300 06 98 26 bd 6c b1 30 bd c1 ed 79 3c 5f f2 6f 3d
       -0.040672325 -0.043137953 0.015254439 0.058580752
000310 c2 3d 50 b8 87 71 85 3d 67 1e 31 ba 40 fe 3c bb
       -4.964858e-05 0.06515794 -0.00067565445 -0.0028838068
000320 12 b9 0d 3c fe db 99 3d af ca 1e 3c b9 f0 7e 3d
       0.008650081 0.07512663 0.009691878 0.06224129
000330 f5 ea a4 bc 97 cf 24 3d 4f 9a 17 bd 31 56 3d 3d
       -0.020131567 0.040237036 -0.037012395 0.046224777
000340 2a e9 8d 3d da 50 cb 3d 52 9c c5 3d aa 3e 98 bd
       0.06929238 0.099275306 0.09648956 -0.07433827
000350 e5 8e 67 3c 15 38 31 bd 2e 3f 21 3d 3d 0c 71 3d
       0.01413319 -0.043266375 0.039366893 0.058849562
000360 bd bc a3 3d 31 fa 84 3c 8e 53 4f 3d 5d 6c 9c 3d
       0.07994983 0.016232582 0.050616793 0.07637856
000370 54 ea 0f ba 39 1d 40 bc 30 ed dc 3d 2b 3b 4b bd
       -0.00054899347 -0.011725717 0.107874274 -0.049616974
000380 bd 90 5c 3c f8 21 02 3e ef bc 10 bd 65 4e f1 bd
       0.013462243 0.1270827 -0.03533643 -0.11782531
000390 7c ea 4e bd 1f f4 3b 3c a3 6e 55 3d 34 ce 3a 3b
       -0.05051659 0.011471777 0.052107465 0.0028504254
0003a0 13 8e c7 bc ef 28 51 3d 7e 0e 8f 39 2c b3 3d 3d
       -0.024359738 0.051064428 0.00027285883 0.04631345
0003b0 a1 4f 9b 3d dd 4d 34 3d 07 05 d4 3d e0 5c 2c bc
       0.075835474 0.04401957 0.103525214 -0.01052019
0003c0 6a ba 9c bc 71 1d c7 bc 67 c4 c5 3c 73 19 ec bd
       -0.019131858 -0.024306031 0.024141503 -0.115282916
0003d0 a8 56 37 3d 47 8a 85 bd 41 38 20 bd d1 b7 9c bc
       0.044760376 -0.06520515 -0.039116148 -0.01913062
0003e0 16 bc f7 bc 0b 3f 3c 3d 79 9d ec 3c d3 d8 c7 bd
       -0.030241054 0.04595856 0.028883683 -0.09758153
0003f0 e3 fe 90 3d eb 31 5b 3d 89 c6 3b bd 1a e4 69 3d
       0.07079866 0.053514402 -0.045843635 0.0571023

l2.bias f4 [256]
000000 42 b1 52 3d db 94 2b 3d 7b 52 3c 3d 35 b2 34 3d
       0.051438577 0.041890007 0.045977097 0.044115264
000010 df 76 42 3d 84 35 3e 3d 76 22 45 3d 07 8d 49 3d
       0.047476646 0.046437755 0.048128568 0.04920676
000020 c3 69 64 3d 9c c9 46 3d 14 ec 06 3d 68 b4 40 3d
       0.055764925 0.048532113 0.032939985 0.04704705
000030 b0 d9 64 3d 9f 13 51 3d d6 ba 47 3d 0d 69 3d 3d
       0.055871665 0.051044103 0.048762165 0.046242762
000040 e5 b8 3c 3d ff e8 6b 3d b5 a4 32 3d eb 8f 55 3d
       0.046074767 0.05759525 0.043614108 0.052139204
000050 cc a0 6e 3d e7 c9 1f 3d 59 be 34 3d 36 04 32 3d
       0.058258817 0.03901091 0.044126842 0.043461047
000060 01 4d 4e 3d d3 2b 66 3d 9e e4 4c 3d 5b 1c 6b 3d
       0.050366405 0.056194138 0.050022714 0.05740009
000070 2b 7e 57 3d c1 9e 43 3d 5c fe 3a 3d f7 32 68 3d
       0.052610558 0.04775882 0.045652732 0.05668923
000080 33 ef 13 3d 07 48 18 3d 58 83 57 3d e1 c6 ab a0
       0.03611679 0.037178066 0.052615494 -2.9100134e-19
000090 35 5e 23 3d f5 77 51 3d 32 ed 28 3d 0d 18 32 3d
       0.039884765 0.05113979 0.041241832 0.043479968
0000a0 ba fa 40 3d 9e bb ec 3c b7 2e 4c 3d bc e3 67 3d
       0.04711411 0.028898057 0.04984924 0.05661367
0000b0 86 fc 4a 3d e2 f4 68 3d 08 31 28 3d e0 cd 3a 3d
       0.04955723 0.056874163 0.041062385 0.045606494
0000c0 63 36 45 3d 73 6c 4b 3d 00 c8 92 3d 9a 76 3c 3d
       0.04814757 0.049663972 0.07167053 0.046011545
0000d0 29 b8 3b 3d 63 43 26 3d 14 55 72 3d f6 74 56 3d
       0.045829926 0.04059161 0.059163168 0.052357636
0000e0 cf 38 71 3d 77 8f 6e 3d b1 67 27 3d 7e 6a 4c 3d
       0.058892068 0.058242287 0.040870372 0.049906246
0000f0 0e 27 68 3d a1 37 61 3d b3 d4 73 3d a4 85 2b 3d
       0.05667787 0.054984692 0.059529018 0.041875497
000100 c8 bd 4e 3d 26 eb 41 3d e9 a3 4c 3d dd 42 5a 3d
       0.05047396 0.047343396 0.049961004 0.053286422
000110 66 ab 1d 3d c1 be 37 3d 22 82 2b 3d 67 87 23 3d
       0.038493536 0.04485965 0.04187215 0.03992405
000120 22 e2 1c 3d 86 cd 4e 3d b6 55 32 3d b1 7e 3d 3d
       0.038301595 0.05048897 0.04353877 0.0462634
000130 c8 a8 24 3d 80 f8 46 3d 58 b3 31 3d db cb 0e 3d
       0.040200025 0.04857683 0.043383926 0.03486238
000140 10 3a 18 3d 77 0b 0e 3d 28 68 3a 3d 71 1e 4f 3d
       0.037164748 0.034678902 0.045509487 0.05056614
000150 10 7a 56 3d e1 63 6c 3d a5 d4 33 3d 67 bd 50 3d
       0.0523625 0.05771244 0.043903966 0.05096188
000160 05 19 83 3d 0c 65 85 3d 38 04 3b 3d a6 48 76 3d
       0.064012565 0.06513414 0.04565832 0.060127877
000170 49 9a 39 3d 5a 8c 61 3d 6d 05 2e 3d 9a b9 3c 3d
       0.045313153 0.05506549 0.042485643 0.04607544
000180 88 06 1f 3d ae d2 26 3d 2e 04 8a 3d b3 19 58 3d
       0.038824588 0.040728264 0.067390785 0.052758884
000190 0d f3 2c 3d 32 0f 12 3d 6b 32 4c 3d 6b 7e 53 3d
       0.04222398 0.035659023 0.04985277 0.051634233
0001a0 28 e6 3b 3d 56 40 4e 3d 72 75 47 3d 5b 91 2f 3d
       0.04587379 0.050354324 0.04869599 0.04286323
0001b0 11 fc 8e 3d 20 58 58 3d b3 f2 2a 3d 66 44 52 3d
       0.069816716 0.052818418 0.041735362 0.05133476
0001c0 1d 86 29 3d 3f b4 50 3d a6 22 45 3d a4 40 21 3d
       0.041387666 0.050953146 0.048128746 0.039368287
0001d0 f6 97 45 3d 34 33 41 3d fd c4 49 3d 3d 5a 23 3d
       0.048240624 0.04716797 0.04926013 0.03988098
0001e0 72 62 32 3d b6 27 37 3d 11 39 72 3d 5e 78 7c 3d
       0.043550916 0.044715606 0.059136454 0.06163823
0001f0 e9 e4 45 3d 7d 0a 83 3d 8d ab 3f 3d 77 b1 63 3d
       0.04831401 0.06398485 0.046794463 0.055589166
000200 55 63 40 3d 83 c3 63 3d e4 15 84 3d 59 15 4f 3d
       0.04696973 0.055606376 0.06449488 0.050557468
000210 19 8d 66 3d 7a 4c 39 3d 1b 5c 59 3d 44 f5 55 3d
       0.056286905 0.04523895 0.053066354 0.052235857
000220 79 0d 61 3d 51 ec 6f 3d a3 b3 7a 3d 07 b8 20 3d
       0.05494449 0.05857498 0.06120647 0.039238002
000230 e8 aa 24 3d 65 19 86 3d 42 74 08 3d 8e ed 28 3d
       0.04020205 0.06547812 0.033313997 0.041242175
000240 4f c6 6b 3d c3 30 32 3d b7 b5 59 3d 6e 6f 32 3d
       0.05756217 0.043503534 0.053151812 0.0435633
000250 4c f4 57 3d 02 02 58 3d e4 32 4f 3d bd 55 78 3d
       0.052723214 0.05273629 0.050585642 0.06062864
000260 a2 4f 4f 3d 7a 5b 34 3d ac e2 38 3d ed e7 40 3d
       0.050613053 0.04403255 0.045138046 0.04709618
000270 49 2a 55 3d e0 09 82 3d 11 6c 66 3d c2 99 71 3d
       0.05204228 0.0634954 0.056255404 0.058984526
000280 00 a0 5c 3d 9c cb 67 3d a9 98 5e 3d 3f 94 35 3d
       0.053863525 0.05659066 0.054344807 0.04433083
000290 17 ef 1f 3d 61 4d 4d 3d fe b4 3d 3d d9 a3 6d 3d
       0.039046373 0.050122622 0.046315186 0.058017585
0002a0 f5 58 47 3d 77 fc 6f 3d 4d 5e 52 3d 3b f5 16 3d
       0.04866882 0.05859038 0.051359463 0.036854964
0002b0 70 61 56 3d 71 a1 18 3d 55 6d 7f 3d 76 3c 59 3d
       0.052339017 0.037263338 0.062360127 0.053036176
0002c0 f3 ce 28 3d 47 a1 47 3d b0 38 08 3d 1f 5f 17 3d
       0.041212987 0.04873779 0.033257186 0.03695595
0002d0 6b fa 2a 3d ac 89 59 3d c1 48 54 3d 88 4a 53 3d
       0.041742723 0.05310981 0.051827196 0.05158475
0002e0 29 8f 47 3d 79 c0 06 3d fd d7 6f 3d ad f7 49 3d
       0.048720513 0.0328984 0.05855559 0.049308468
0002f0 b4 de 35 3d e2 40 30 3d 83 40 36 3d 47 cd 58 3d
       0.04440184 0.043030627 0.044495117 0.052930143
000300 16 90 7f 3d bf 9d 67 3d 15 02 6e 3d 15 8b 1e 3d
       0.06239327 0.056546923 0.058107454 0.038706858
000310 d8 b6 5f 3d dd 17 12 3d af c9 3c 3d 56 d4 46 3d
       0.054617733 0.03566729 0.046090778 0.048542343
000320 d1 c0 57 3d e6 2e 57 3d d1 50 34 3d 31 01 38 3d
       0.05267412 0.05253496 0.044022385 0.04492301
000330 4a 1f 50 3d 37 98 54 3d b1 ec 35 3d 8b ec 3e 3d
       0.05081109 0.051902976 0.04441518 0.046612304
000340 6b 0f 30 3d 88 9d 17 3d 01 55 34 3d bd e7 25 3d
       0.042983454 0.037015468 0.04402638 0.040504206
000350 77 16 78 3d 12 a4 5a 3d a4 ca 12 3d 5a 19 5a 3d
       0.0605683 0.053379126 0.035837784 0.053246833
000360 f6 7f 34 3d b5 a2 7b 3d 79 23 12 3d cf fc 28 3d
       0.044067346 0.061434466 0.03567836 0.041256722
000370 ec bc 4f 3d 73 e5 56 3d 8e 84 3d 3d a9 09 41 3d
       0.05071728 0.052464914 0.046268992 0.047128353
000380 82 bf 12 3d 07 b9 28 3d 62 ab 4a 3d 69 2c 8a 3d
       0.035827167 0.04119208 0.04947985 0.06746752
000390 2a bb 57 3d b4 1a 4d 3d be 77 4d 3d c3 f5 43 3d
       0.052668728 0.050074294 0.050163023 0.0478418
0003a0 fe 34 38 3d d1 9d 63 3d 6c c7 40 3d d8 8e 24 3d
       0.044972412 0.055570427 0.047065184 0.04017529
0003b0 81 67 52 3d fc 12 45 3d a9 da 68 3d fe 94 34 3d
       0.05136824 0.048113808 0.056849156 0.044087403
0003c0 8e 9a 4b 3d df d3 60 3c 80 5c 6d 3d 83 1c 4b 3d
       0.04970794 0.013722389 0.057949543 0.049587738
0003d0 a2 3c 7d 3d 0f 8f 77 3d 71 35 5c 3d 07 13 34 3d
       0.061825402 0.060439166 0.053761903 0.04396346
0003e0 72 6f 56 3d d7 0f 59 3d 6a ec 1c 3d e7 54 28 3d
       0.052352376 0.05299362 0.0383114 0.041096594
0003f0 aa 13 68 3d 58 34 6d 3d 8c 76 54 3d c7 cc 60 3d
       0.056659378 0.057911247 0.051870868 0.05488279
