code/save/model_qlvxqhkvit.pt (torch, 355295 bytes, 4 tensors)

embed.weight f4 [59, 128]
0	0x3e2d27b9	0.16909684
1	0xbea6c0bc	-0.3256892
2	0x3e5f3470	0.21797347
3	0x3d219e32	0.039457507
4	0xbeac67ee	-0.33673042
5	0x3b80b760	0.00392811
6	0xbe59a4af	-0.21254228
7	0x3e9a99c9	0.30195454
8	0x3e82db6a	0.25558025
9	0xbe03e851	-0.1288159
10	0x3dd08318	0.10181254
11	0xbdffc737	-0.12489169
12	0xbe963911	-0.29340413
13	0x3e8bafa7	0.2728245
14	0xbeb894dd	-0.36051074
15	0xbe81694a	-0.25275642
16	0xbdcc69a9	-0.099810906
17	0x3e8afcb3	0.2714592
18	0x3da90cd4	0.082544
19	0xbe9c4909	-0.3052447
20	0xbe93a274	-0.2883488
21	0x3eb8bdf3	0.3608242
22	0x3e91e556	0.28495282
23	0x3d91410e	0.07092486
24	0x3e947f24	0.2900325
25	0x3e8e8384	0.27834713
26	0xbe3b0923	-0.18265204
27	0x3e804326	0.2505123
28	0x3ead80b2	0.3388725
29	0x3dec9415	0.11551682
30	0x3e9d4d91	0.3072324
31	0x3e4a3d12	0.19749859
32	0x3daa0a70	0.08302772
33	0x3e79d293	0.24396734
34	0xbeb4cdf8	-0.35313392
35	0x3e1c5b5a	0.15269223
36	0xbe309eaa	-0.17248026
37	0xbea1672f	-0.31524035
38	0x3e227156	0.15863547
39	0x3c470587	0.012147314
40	0x3d854ade	0.065084204
41	0xbeb6e9f4	-0.35725367
42	0x3e85cf75	0.2613484
43	0xbeb8b58c	-0.3607601
44	0xbe439e40	-0.19103336
45	0xbe6b0e97	-0.22954784
46	0xbe869f43	-0.26293382
47	0xbbc69780	-0.0060605407
48	0xbc911dd5	-0.01771442
49	0x3e9d7c04	0.3075868
50	0x3da143a9	0.07874233
51	0xbe2ab182	-0.16669276
52	0x3eb8d808	0.3610232
53	0x3bf0d727	0.007349867
54	0x3e654aab	0.22391765
55	0x3e7334ae	0.23750564
56	0xbe9176db	-0.28410992
57	0xbe0ad199	-0.13556518
58	0x3e3a3d3b	0.1818742
59	0x3b135420	0.0022480562
60	0xbeba6614	-0.36406004
61	0x3e96d5bf	0.2945995
62	0x3edd1e82	0.43187338
63	0x3d9f9017	0.07791155
64	0xbe34020b	-0.17578904
65	0xbc6a255e	-0.014291136
66	0x3e1b6c0d	0.15177937
67	0xbe65be85	-0.22435959
68	0x3edb6ef3	0.42858085
69	0xbe9c9af4	-0.3058697
70	0xbd2d23d8	-0.04227051
71	0xbe7c2e3a	-0.24627009
72	0xbec102f3	-0.37697563
73	0xbcee75ea	-0.02910896
74	0x3e7a9e94	0.24474555
75	0x3de2bb78	0.11070913
76	0x3cc302e3	0.023805087
77	0xbd70b79f	-0.058768865
78	0xbe33006c	-0.1748063
79	0x3e3d5377	0.1848887
80	0x3ed2e6e0	0.4119177
81	0x3e9d44f1	0.3071666
82	0x3e771e17	0.24132572
83	0x3ed5a4fc	0.41727436
84	0xbde50485	-0.11182503
85	0xbd9fd989	-0.078051634
86	0xbe5dfa6f	-0.21677564
87	0x3e398a28	0.18119109
88	0x3e293e40	0.16527653
89	0xbeb10ab6	-0.34578484
90	0xbd2cede0	-0.042219043
91	0x3e7b591f	0.24545716
92	0xbe8877b5	-0.2665383
93	0xbe925524	-0.28580582
94	0x3ed51c57	0.41623184
95	0xbe04bc0c	-0.12962359
96	0x3d135fc7	0.035980012
97	0x3e2d4277	0.16919886
98	0xbeb2997d	-0.34882727
99	0xbe5a6d56	-0.21330771
100	0x3e996d51	0.29966214
101	0xbec18e42	-0.37803847
102	0xbe7dfd2f	-0.24803613
103	0x3eb57638	0.35441756
104	0xbeab5f73	-0.3347126
105	0x3e998ed3	0.2999178
106	0xbd86c14d	-0.06579838
107	0xbe8bc946	-0.27301997
108	0xbe94867a	-0.29008847
109	0xbcf963d6	-0.030443113
110	0x3d82a213	0.063785695
111	0x3ece57fc	0.40301502
112	0xbe8486a0	-0.2588396
113	0xbedd3dba	-0.43211156
114	0xbea62468	-0.3244965
115	0xbe80be11	-0.2514501
116	0x3d3b572e	0.045737438
117	0x3e6d04d6	0.23146376
118	0xbe1bfe24	-0.15233666
119	0xbebcd393	-0.36880168
120	0x3e3fd6f5	0.18734343
121	0xbea4c116	-0.32178563
122	0x3eb02aed	0.3440775
123	0xbeb89068	-0.36047673
124	0x3e27f8f2	0.16403559
125	0x3e5f80b3	0.21826439
126	0xbe6ad38c	-0.22932261
127	0xbb065769	-0.0020498878
128	0xbea453af	-0.32095096
129	0xbe88bba3	-0.26705655
130	0x3e9b2af6	0.30306214
131	0x3e1fbcc6	0.15599355
132	0xbe67de6d	-0.22643442
133	0xbea26dea	-0.31724483
134	0xbe995174	-0.29944956
135	0x3d9b8e8b	0.07595547
136	0x3e1c2e2b	0.15251987
137	0xbeb7f04c	-0.3592552
138	0x3e8d42d7	0.27590057
139	0x3ea4834a	0.32131416
140	0x3ea8358b	0.3285335
141	0xbe04ad33	-0.12956695
142	0xbf0b17c3	-0.5433313
143	0xbe8e7ead	-0.2783102
144	0x3df37df3	0.11889257
145	0xbe994fdf	-0.2994375
146	0xbebc04a0	-0.3672228
147	0x3ce31c8f	0.027723579
148	0x3e9fff7e	0.31249613
149	0x3c0720cc	0.0082475655
150	0x3e730cf7	0.23735414
151	0x3d3f864c	0.046758935
152	0xbd09315c	-0.03349434
153	0x3eabcf2b	0.33556494
154	0xbe5a306d	-0.21307535
155	0xbe7e4d88	-0.24834263
156	0xbec07fea	-0.3759759
157	0x3e99e0d7	0.30054352
158	0x3d0a1c05	0.033718128
159	0xbe83e617	-0.25761482
160	0xbdcc754e	-0.099833116
161	0x3e162f22	0.14666417
162	0xbe9de9fc	-0.30842578
163	0xbe8d22e1	-0.27565673
164	0xbe7f80fe	-0.2495155
165	0xbe5be863	-0.21475367
166	0xbdbf7d4a	-0.09350069
167	0xbe8580b9	-0.2607477
168	0x3e8e8a38	0.27839828
169	0xbe30929f	-0.17243432
170	0xbddc880b	-0.10768136
171	0xbe8bbb0b	-0.2729114
172	0x3ec8d45c	0.39224517
173	0xbd96f9ea	-0.07371886
174	0xbe7316d2	-0.23739174
175	0xbed28025	-0.41113392
176	0x3e3e32a2	0.18574002
177	0x3c58760b	0.013211737
178	0x3e314bcf	0.17314075
179	0x3eca5664	0.39519036
180	0xbe08210b	-0.13293855
181	0xbe18310f	-0.14862464
182	0xbe98e2d2	-0.2986055
183	0xbe8bcc96	-0.27304524
184	0xbe86ca2c	-0.2632612
185	0x3e287dbc	0.16454214
186	0xbe1efb50	-0.15525556
187	0x3d4b0ff5	0.049575765
188	0xbe782a4f	-0.2423489
189	0xbe9d6146	-0.30738276
190	0x3edb936b	0.42885908
191	0x3e58ea86	0.21183214
192	0xbe7cd2a3	-0.24689727
193	0xbd912e09	-0.07088859
194	0x3e928bbd	0.28622237
195	0x3eb6d254	0.35707343
196	0x3d469c32	0.048488803
197	0xbe165600	-0.14681244
198	0x3ebedc6e	0.3727755
199	0x3e1ed388	0.1551038
200	0xbeb7fb51	-0.35933927
201	0x3ed45ead	0.41478482
202	0x3d96289b	0.07331964
203	0xbe97489f	-0.29547593
204	0xbe24d207	-0.16095744
205	0x3e8cdb0e	0.27510875
206	0x3c90d948	0.017681733
207	0xbe523776	-0.20528969
208	0xbe3c564c	-0.18392295
209	0x3df5ddc4	0.12005189
210	0x3e8569f1	0.2605739
211	0x3e1a8abc	0.15091985
212	0xbeae480e	-0.34039348
213	0x3e88d8e1	0.26727965
214	0xbd1e5497	-0.03865489
215	0xbd360568	-0.04443875
216	0x3ca6dc68	0.02036877
217	0x3e9efb07	0.31050894
218	0xbeb42eb8	-0.35191894
219	0xbde2e1ef	-0.1107825
220	0xbbfbd756	-0.007685582
221	0xbe1abb80	-0.15110588
222	0x3e93d77e	0.28875345
223	0x3d9ec87e	0.077530846
224	0x3e714903	0.23563008
225	0x3e55fd3c	0.20897382
226	0xbea21350	-0.3165536
227	0x3e910869	0.2832673
228	0x3e76d66d	0.24105234
229	0xbe798e10	-0.24370599
230	0xbd8c4f3f	-0.068510525
231	0x3dd43c69	0.10363085
232	0x3d956c3f	0.07296037
233	0xbe9e70db	-0.30945477
234	0xbe7be018	-0.24597204
235	0xbe388314	-0.18018752
236	0xbdf987fa	-0.121841386
237	0x3e9921c2	0.29908568
238	0x3e9c38a5	0.30511966
239	0x3e7298dc	0.23691124
240	0xbeb8c89d	-0.36090556
241	0xbd36e363	-0.044650447
242	0xbe3ac27e	-0.18238255
243	0xbe98e9bc	-0.29865825
244	0xbe34cdf0	-0.17656684
245	0x3e620e94	0.22075874
246	0xbc313bd3	-0.010817486
247	0xbeb7bbe7	-0.35885546
248	0xbe8a0da9	-0.26963547
249	0x3d7a65d2	0.06113226
250	0x3e1150ea	0.14191023
251	0xbec47982	-0.38373953
252	0x3e2a8c36	0.16655049
253	0x3ea508ea	0.32233363
254	0x3dc53305	0.09628872
255	0xbe198eb8	-0.14995849

unembed.weight f4 [59, 256]
0	0x37a95565	2.0186135e-05
1	0xbc3188d3	-0.010835844
2	0x3d845185	0.06460861
3	0x3418b328	1.422128e-07
4	0x3e59086d	0.2119462
5	0x3e9a4081	0.30127338
6	0xb4252537	-1.5380361e-07
7	0x3e559b43	0.20860009
8	0x3e4e75ee	0.20162174
9	0x3e70212a	0.23450151
10	0xbd0de13c	-0.03463863
11	0x3e5586b0	0.2085216
12	0x3d11d330	0.035601795
13	0x3e16bf0b	0.14721315
14	0x3e7cef43	0.24700646
15	0x3ebc75b1	0.3680854
16	0x3e75203e	0.2393808
17	0x3e60fa84	0.21970564
18	0x36568864	3.1967875e-06
19	0xbeb7d8a6	-0.35907477
20	0xbec3b2b1	-0.38222268
21	0x3ecf01cb	0.40431055
22	0x3db65556	0.08902995
23	0x3da8ae01	0.082363136
24	0xb7934c83	-1.7559394e-05
25	0x3e9585f1	0.29203752
26	0xb2dd8ea2	-2.5792648e-08
27	0x3e6cfa12	0.23142269
28	0x3e88aaa5	0.2669269
29	0x3ea7fff1	0.32812455
30	0x350cfa2c	5.251811e-07
31	0x3d4acd7c	0.04951237
32	0xbeb9b302	-0.36269385
33	0x3531e80d	6.6275317e-07
34	0x3e2954f9	0.16536321
35	0xbeae9ef0	-0.34105635
36	0xbe8e731c	-0.27822196
37	0x3e4585e6	0.1928936
38	0xbe5ea041	-0.2174082
39	0xb462d153	-2.1124042e-07
40	0xbd810228	-0.062992394
41	0x3e5fc9d3	0.21854334
42	0xb7df4f6b	-2.6620653e-05
43	0x36caaa9d	6.039931e-06
44	0xb278df14	-1.4486222e-08
45	0x3d1e2ecb	0.038618844
46	0xb9c2142d	-0.00037017596
47	0xbda39d66	-0.07989006
48	0xbe920ba9	-0.2852452
49	0xbe1bf111	-0.15228678
50	0xbe980b96	-0.2969634
51	0x3e526925	0.20547922
52	0x3e86cfe7	0.26330492
53	0x3cf83137	0.030296905
54	0xb4604363	-2.0886141e-07
55	0xb486f665	-2.513872e-07
56	0x3e893ac1	0.26802638
57	0x3e8778e5	0.26459423
58	0x36c32147	5.815327e-06
59	0x3d04b5e9	0.032400046
60	0x397a9a79	0.00023899403
61	0x3e2917e8	0.16513026
62	0x3e810c6b	0.25204787
63	0x3e81c188	0.25342965
64	0x33076f6e	3.153348e-08
65	0x3ee232a4	0.4417926
66	0x3e4aa70b	0.19790284
67	0xb7e5d8d2	-2.7399892e-05
68	0x3d1ca759	0.038245533
69	0x3e72326f	0.23652051
70	0xb324b940	-3.835271e-08
71	0x3e514bee	0.20439121
72	0x3e66b073	0.22528248
73	0xbd60b169	-0.05485669
74	0xbe9fb25a	-0.3119076
75	0x3e800011	0.2500005
76	0x3e25e3bf	0.1620016
77	0x37f7ba3b	2.9531415e-05
78	0x3e8fa1b5	0.2805306
79	0x3d6670c6	0.056259893
80	0x3ca96e1e	0.02068239
81	0x3ea74f17	0.32677528
82	0x3e71a987	0.23599826
83	0x39b8736a	0.00035181205
84	0xbe04883c	-0.12942594
85	0x3e99b162	0.30018145
86	0xb8e46c0c	-0.000108920125
87	0x3e8f9035	0.2803971
88	0x3d93981a	0.072067454
89	0x3e656489	0.22401632
90	0x3ea33227	0.318742
91	0x3e116394	0.14198142
92	0xbeb4aff3	-0.3529049
93	0x35e179e4	1.6799281e-06
94	0xbf06e6d4	-0.52695966
95	0xbe1af84a	-0.15133777
96	0xbe9d1ff1	-0.30688432
97	0xbeb4f6ca	-0.35344535
98	0x3e58b041	0.21160986
99	0x3dec37ae	0.115340576
100	0xb818ad8f	-3.6401263e-05
101	0x3e86203c	0.26196468
102	0xbe72cc25	-0.23710687
103	0x38f347e3	0.00011600533
104	0xbe8bfa5b	-0.27339444
105	0x3e00fb95	0.12595971
106	0xbe1239bc	-0.14279836
107	0x368bd249	4.167003e-06
108	0x3dcc54db	0.099771224
109	0xb911bad4	-0.00013897876
110	0xba95466a	-0.0011388783
111	0xbdf7eb33	-0.121054076
112	0xb26d0e78	-1.37985054e-08
113	0x372bb596	1.0234673e-05
114	0x3dbb2dd1	0.09139598
115	0xbe3f0cd5	-0.18657239
116	0xbe16c8e5	-0.14725073
117	0xbe420cb5	-0.1895016
118	0xb5f10db2	-1.7959885e-06
119	0xbe88d6a7	-0.26726267
120	0xbe87076c	-0.2637285
121	0xbb63b41c	-0.0034744805
122	0xb227bbc5	-9.763373e-09
123	0x3e934816	0.28765935
124	0xbd1e1e0c	-0.038602874
125	0x3eab11ad	0.33411923
126	0xbe98511b	-0.2974938
127	0xbec666b2	-0.38750225
128	0x3c77f6f8	0.0151345655
129	0x3e4cdf56	0.20007071
130	0xb5e11ba3	-1.677185e-06
131	0x3e8b9728	0.2726376
132	0x3e3413a7	0.17585622
133	0x389099c2	6.895095e-05
134	0x3e692ed1	0.22771765
135	0xbd511497	-0.051045027
136	0xbe56d8fe	-0.20981213
137	0xbe8216e2	-0.25408083
138	0x3e34bfde	0.17651317
139	0xb9a15e2b	-0.00030778474
140	0xbc95af35	-0.018272022
141	0x3e6df15c	0.23236603
142	0x3e6a191b	0.2286114
143	0xbca47a77	-0.020077927
144	0x3e990042	0.2988301
145	0x3e2d2055	0.16906865
146	0x3e8e3e1b	0.27781758
147	0x3ecb2c1e	0.39682096
148	0xb5e86efe	-1.731765e-06
149	0x3e989835	0.29803625
150	0xb5d03b6a	-1.5514499e-06
151	0xbe7dc478	-0.24781978
152	0x3d34ba18	0.044122785
153	0xbe801567	-0.2501633
154	0xb4fbe33f	-4.6917737e-07
155	0x3e59d9fa	0.21274558
156	0xbe97b656	-0.296313
157	0x3e7b636a	0.24549642
158	0x3e89fa66	0.2694885
159	0x31d315f4	6.143404e-09
160	0x3e6a838b	0.22901742
161	0x3e701f94	0.23449546
162	0x3886fab7	6.436317e-05
163	0xb4afefb4	-3.2770697e-07
164	0xb398eb26	-7.120825e-08
165	0xbee31311	-0.44350484
166	0xbe169380	-0.14704704
167	0x3e2a2cd4	0.16618663
168	0xbe038cda	-0.128467
169	0x3e86d784	0.263363
170	0xbea10f81	-0.3145714
171	0x37c14078	2.3037413e-05
172	0xbdf656e0	-0.12028289
173	0xbe0f43c8	-0.139907
174	0xbe476d04	-0.1947518
175	0x38e86cd9	0.000110828965
176	0xbd031b9e	-0.03200876
177	0x3d89e239	0.06732602
178	0xbe3ee98f	-0.18643783
179	0x3e3a0d75	0.18169196
180	0xb5131388	-5.479019e-07
181	0x3dcb28ac	0.09919867
182	0x3d81ee33	0.06344261
183	0x377790c8	1.4756057e-05
184	0xbe17509e	-0.14776847
185	0x3d9fc5f8	0.078014314
186	0xbe240183	-0.16016202
187	0x3e564f7c	0.20928758
188	0xbe3b1c57	-0.1827253
189	0xbee46d66	-0.44614714
190	0x3e1b56e4	0.15169865
191	0x382a9db4	4.067803e-05
192	0x3e36c24a	0.17847553
193	0xbe3c6390	-0.18397355
194	0x3e46ec7f	0.19426154
195	0xbdd1963f	-0.10233735
196	0x37311eb4	1.0557171e-05
197	0xbebb1052	-0.3653589
198	0x3e719e43	0.23595528
199	0x3e85e9fe	0.26155084
200	0x3c387eeb	0.011260728
201	0xb701079e	-7.690773e-06
202	0xbd0b3b2a	-0.03399197
203	0x3d7132f2	0.058886476
204	0x3eb5b590	0.35490084
205	0xbddcf421	-0.107887514
206	0xbe847d9d	-0.25877085
207	0x3e502cb5	0.20329554
208	0x3d827f64	0.06371954
209	0x3ddd1bee	0.10796343
210	0xbeb58122	-0.35450083
211	0x384f04e0	4.9357186e-05
212	0xbf05980c	-0.5218513
213	0x3e123bfe	0.14280698
214	0xbee55882	-0.4479409
215	0x37043da3	7.882164e-06
216	0x3684b444	3.9548922e-06
217	0xbef33fa1	-0.47509483
218	0xbdede573	-0.116160296
219	0x3ebe1ed6	0.371329
220	0x35442209	7.306522e-07
221	0x3e5fa500	0.21840286
222	0xbe199347	-0.14997588
223	0x3e5c3f4a	0.21508518
224	0xb7481edc	-1.1928114e-05
225	0xbeb6d69e	-0.35710615
226	0xbe23a35b	-0.15980284
227	0x3e4200da	0.18945637
228	0x3e976d97	0.29575798
229	0x3e8ceebd	0.27525893
230	0xbec3d4a3	-0.38248166
231	0xb7e8d281	-2.7754579e-05
232	0xbed1be5e	-0.4096555
233	0x3eb9b70c	0.36272466
234	0x3e2b60e7	0.16736184
235	0xbe95f42a	-0.29287845
236	0xbe2b738a	-0.16743293
237	0x3e7107e4	0.23538166
238	0xbecabcf4	-0.39597285
239	0x3e9d3e84	0.30711758
240	0xbc1eba91	-0.009688036
241	0x34a58589	3.0830805e-07
242	0xbd8e50cf	-0.06949007
243	0x3e935e5a	0.28782922
244	0x3e2ff0b9	0.17181672
245	0xbe7e5d0e	-0.24840185
246	0x3e65bcda	0.22435322
247	0xbe871f80	-0.2639122
248	0xb9c0540b	-0.0003668371
249	0xbe415c28	-0.18882811
250	0x37689a5f	1.386422e-05
251	0xbe0167fa	-0.1263732
252	0xbe5a281d	-0.21304365
253	0xbedce549	-0.4314368
254	0xbebb8a6c	-0.36629045
255	0x3dd89195	0.105746426

l1.weight f4 [256, 256]
0	0xb8910250	-6.9145695e-05
1	0x37bead0c	2.2730346e-05
2	0xb703996e	-7.843932e-06
3	0xb7e4600b	-2.7224442e-05
4	0x3807965a	3.2326534e-05
5	0xb7aee530	-2.084914e-05
6	0x37974aa7	1.8035365e-05
7	0xb822fe87	-3.8860857e-05
8	0xb8cce388	-9.769859e-05
9	0xb785514f	-1.5892698e-05
10	0x3798cfb2	1.8216528e-05
11	0xb738414e	-1.098246e-05
12	0x372295b9	9.6908125e-06
13	0x3801c983	3.094367e-05
14	0x373a3caf	1.1100593e-05
15	0xb7c0c8ce	-2.298169e-05
16	0xb864affa	-5.4523327e-05
17	0xb7a846ae	-2.0060073e-05
18	0x35bac474	1.3915255e-06
19	0x3847bae0	4.7619338e-05
20	0xb78aa668	-1.652837e-05
21	0xb7a99ed2	-2.0220326e-05
22	0xb8397345	-4.421479e-05
23	0xb5d366ec	-1.5750679e-06
24	0x37423e8a	1.1577862e-05
25	0x385d226c	5.2722564e-05
26	0x3828c98e	4.0242034e-05
27	0xb9011655	-0.00012310718
28	0x3741b091	1.15448065e-05
29	0x377175ca	1.4392144e-05
30	0x3822fe85	3.886085e-05
31	0xb8266ea2	-3.968052e-05
32	0x3872d5cc	5.789641e-05
33	0x380cfd33	3.361441e-05
34	0xb9229aa1	-0.00015507128
35	0xb72eefb2	-1.0427017e-05
36	0xb81f9911	-3.805111e-05
37	0x378d2420	1.6825332e-05
38	0x37c8658d	2.3889146e-05
39	0xb6b5eff5	-5.422155e-06
40	0xb7bf20ac	-2.2784188e-05
41	0x38cdf829	9.821385e-05
42	0xb803b997	-3.1405678e-05
43	0xb80ff5cb	-3.432277e-05
44	0x371508b5	8.883119e-06
45	0x3848ec0a	4.7903544e-05
46	0x37548340	1.2666744e-05
47	0x377867d4	1.4806126e-05
48	0x3831c91f	4.2387397e-05
49	0xb7941fc2	-1.7657763e-05
50	0xb81c90db	-3.7328206e-05
51	0xb8a938d9	-8.069137e-05
52	0x3889d7b9	6.5728505e-05
53	0x37fabd19	2.9890378e-05
54	0x38348260	4.3036765e-05
55	0xb862e617	-5.4096887e-05
56	0xb7e43406	-2.7203943e-05
57	0x38a1e4f8	7.719727e-05
58	0x36b087ba	5.2610094e-06
59	0x37d767eb	2.5678388e-05
60	0xb70e98fd	-8.49948e-06
61	0xb88314e1	-6.250456e-05
62	0xb811c6a4	-3.4755692e-05
63	0xb8570dd2	-5.1272866e-05
64	0x38278b8a	3.994586e-05
65	0xb825c540	-3.952277e-05
66	0xb81b803d	-3.707431e-05
67	0x383c12c3	4.4840166e-05
68	0xb8572730	-5.129649e-05
69	0x38f16651	0.000115108334
70	0xb806bcd2	-3.2123942e-05
71	0xb85eb146	-5.3094023e-05
72	0x37aab583	2.0350102e-05
73	0x36ce5119	6.1487194e-06
74	0xb78e36d6	-1.6953254e-05
75	0xb89a26f6	-7.350549e-05
76	0xb5b9a755	-1.3832274e-06
77	0x385afee8	5.221265e-05
78	0xb7487736	-1.1948685e-05
79	0x3872fd2f	5.793309e-05
80	0xb651c951	-3.1260608e-06
81	0xb602a160	-1.9465442e-06
82	0x37070fcd	8.050306e-06
83	0xb8664b56	-5.4906435e-05
84	0x38e0bf92	0.00010716835
85	0xb7038d6f	-7.8411385e-06
86	0xb6f29542	-7.229538e-06
87	0xb69ea6ee	-4.7282e-06
88	0x38001530	3.053731e-05
89	0xb6e4e7d1	-6.8219165e-06
90	0xb6df2a26	-6.6508246e-06
91	0x372adb60	1.0183867e-05
92	0xb8c728ec	-9.496682e-05
93	0xb89cf9b8	-7.4851734e-05
94	0xb7d0dd8a	-2.4898694e-05
95	0xb7da44db	-2.6019688e-05
96	0xb7b107cd	-2.1103677e-05
97	0x38185077	3.6314563e-05
98	0x35586fd1	8.0628985e-07
99	0xb887b1fc	-6.470454e-05
100	0xb8ca4744	-9.645385e-05
101	0x37da8df9	2.6053736e-05
102	0xb8e05fdb	-0.00010699007
103	0x37ca24a2	2.4097335e-05
104	0xb8bfaba9	-9.139564e-05
105	0x38c8b125	9.569739e-05
106	0x383a68a1	4.44433e-05
107	0x37344575	1.0745008e-05
108	0x388186bc	6.1762956e-05
109	0x385d4cb7	5.2761952e-05
110	0x38a5e26e	7.909989e-05
111	0x37bba297	2.2367849e-05
112	0x35f13e99	1.7974118e-06
113	0x38cf78a2	9.892999e-05
114	0xb7d46648	-2.5319998e-05
115	0x384d4972	4.894421e-05
116	0x37778550	1.47533865e-05
117	0x3895b6ce	7.138924e-05
118	0x37c21e50	2.3140718e-05
119	0xb755b94e	-1.2738934e-05
120	0x3857855e	5.1384202e-05
121	0x37eae0d0	2.799966e-05
122	0x3764ceb1	1.3637983e-05
123	0xb8a755ba	-7.979148e-05
124	0xb8accec6	-8.240114e-05
125	0xb839c3d4	-4.4289816e-05
126	0xb86066e8	-5.35016e-05
127	0xb88c7fc6	-6.69952e-05
128	0x383ff032	4.5761648e-05
129	0x3739e1ff	1.1079478e-05
130	0xb6a8c203	-5.029376e-06
131	0xb8d63320	-0.00010213838
132	0x3803ef15	3.1455496e-05
133	0x38b5d90c	8.671181e-05
134	0xb5a972d6	-1.2624903e-06
135	0xb78dff6b	-1.6927448e-05
136	0x3926b4f9	0.00015898411
137	0xb88bd2d7	-6.6673085e-05
138	0xb72adc08	-1.018402e-05
139	0x3702797a	7.776887e-06
140	0x38a28ca1	7.750956e-05
141	0x38795fb5	5.945536e-05
142	0xb83818ae	-4.3892003e-05
143	0x37ab00ea	2.0385214e-05
144	0x372cbfe1	1.0296674e-05
145	0x37f55ce5	2.9249533e-05
146	0xb7c60c56	-2.3609184e-05
147	0x36c1aae9	5.771745e-06
148	0x37a047e9	1.9106972e-05
149	0x381eb55f	3.783905e-05
150	0x38c49afe	9.374878e-05
151	0xb863404e	-5.4180906e-05
152	0x3692b420	4.3721084e-06
153	0xb7565bd0	-1.2776771e-05
154	0x385a93ec	5.2113013e-05
155	0x36820c2e	3.87572e-06
156	0xb88a3cb5	-6.59166e-05
157	0x380190c3	3.0890817e-05
158	0xb88197fb	-6.179508e-05
159	0x38a64a04	7.929283e-05
160	0xb6c7d797	-5.95576e-06
161	0x390b16ab	0.00013264517
162	0x386a7b00	5.59045e-05
163	0xb7badc62	-2.2275552e-05
164	0x38ad84ad	8.2739956e-05
165	0x381f484a	3.797588e-05
166	0xb8a9e240	-8.10069e-05
167	0x381266c4	3.490482e-05
168	0x37f11719	2.8740194e-05
169	0x38958309	7.129281e-05
170	0x3822abee	3.878393e-05
171	0x384376f8	4.660242e-05
172	0xb81e2b43	-3.7710426e-05
173	0xb6e58f1d	-6.8413924e-06
174	0x36674046	3.4459094e-06
175	0x381da051	3.7581023e-05
176	0xb8c334bd	-9.308148e-05
177	0xb84ad941	-4.8362886e-05
178	0x38a0e127	7.6713324e-05
179	0x38857479	6.363629e-05
180	0xb78bacf8	-1.6650636e-05
181	0x382afe9b	4.076828e-05
182	0xb8112eca	-3.461427e-05
183	0x389ccafa	7.476467e-05
184	0x38804e9b	6.118157e-05
185	0xb6b9ca23	-5.5369615e-06
186	0xb8ff4a53	-0.000121731915
187	0x37f005c9	2.8612923e-05
188	0x37851ff3	1.5869713e-05
189	0x388d5186	6.738589e-05
190	0x38a33a16	7.783265e-05
191	0x3631f59c	2.6518019e-06
192	0xb7f3c267	-2.9058383e-05
193	0xb5893a5d	-1.0224281e-06
194	0xb7a56bc8	-1.9719722e-05
195	0x374ce280	1.2212084e-05
196	0x3783fe7c	1.573492e-05
197	0xb83e5254	-4.5376204e-05
198	0xb738b9cb	-1.1010513e-05
199	0x3866d5d3	5.5035413e-05
200	0xb7d39f4b	-2.5227337e-05
201	0x38b52a4f	8.638633e-05
202	0xb7911159	-1.7293425e-05
203	0x38874dac	6.451769e-05
204	0x380098a1	3.0659725e-05
205	0x37e69a3a	2.7489954e-05
206	0x3789ea4b	1.6440774e-05
207	0x37562347	1.2763608e-05
208	0x3716cd2a	8.988465e-06
209	0x3829e172	4.0502702e-05
210	0x38878452	6.461948e-05
211	0x382fc3a5	4.190546e-05
212	0x35f06187	1.7909778e-06
213	0xb64f9a8a	-3.0935357e-06
214	0x37de923c	2.6532558e-05
215	0xb8ac504e	-8.216557e-05
216	0x371bd1f3	9.287603e-06
217	0xb7c63d2e	-2.3631928e-05
218	0xb810c021	-3.451121e-05
219	0x38a061a6	7.647583e-05
220	0x37c57f91	2.3543633e-05
221	0x37f3b450	2.9051822e-05
222	0x385eafa5	5.3092506e-05
223	0x368314bd	3.9065185e-06
224	0x376ffb8d	1.4304079e-05
225	0xb8af29fd	-8.352471e-05
226	0xb648b84a	-2.9909593e-06
227	0x37718587	1.4395809e-05
228	0x38a0e62b	7.672267e-05
229	0xb7eb7cd9	-2.807232e-05
230	0x3695ce3c	4.464555e-06
231	0xb8efb823	-0.00011430706
232	0x366eeba3	3.5601922e-06
233	0x3874b068	5.8338424e-05
234	0xb8b91adb	-8.82649e-05
235	0x38770a20	5.889882e-05
236	0xb836a16c	-4.3542517e-05
237	0xb6b7fbf6	-5.483157e-06
238	0xb8dd0bda	-0.00010540309
239	0x364ad197	3.0222343e-06
240	0x373eb7ef	1.1367708e-05
241	0xb8248e82	-3.9233368e-05
242	0xb79b5d23	-1.852081e-05
243	0x37dffea0	2.670224e-05
244	0xb7eb4afa	-2.8049097e-05
245	0xb698e109	-4.5561505e-06
246	0x37fda157	3.023508e-05
247	0x3815b0f0	3.5689154e-05
248	0xb7bd3a2e	-2.2557648e-05
249	0x3836b1a2	4.3557615e-05
250	0xb83bb502	-4.475285e-05
251	0xb7d93cff	-2.589682e-05
252	0x3891c9c8	6.9517235e-05
253	0xb68af2dc	-4.140993e-06
254	0x381bf717	3.7185e-05
255	0xb6bfb4d6	-5.7132956e-06

l1.bias f4 [256]
0	0x383c9e42	4.4970082e-05
1	0x3a612a3b	0.00085893617
2	0x3d0ccc18	0.034374326
3	0x339450c1	6.906476e-08
4	0xbc630f7c	-0.013858672
5	0xb9894f75	-0.00026189876
6	0x3230025d	1.0245086e-08
7	0x3cc46967	0.023976041
8	0xbd0703f8	-0.03296277
9	0xbbdf00c3	-0.0068055107
10	0xbb5c2654	-0.0033592181
11	0xbbfdcc32	-0.0077452892
12	0xbc1f3429	-0.009717026
13	0xbc1ae2ec	-0.009453516
14	0xba4293c9	-0.00074225344
15	0xbae2db8d	-0.0017307863
16	0x3cb4fea5	0.02209408
17	0xbc559ff2	-0.013038622
18	0xb3a546f5	-7.696318e-08
19	0x3d4787d4	0.04871352
20	0x3cfc9a75	0.03083537
21	0xbcdf07f4	-0.027225472
22	0xb831e457	-4.2412747e-05
23	0x3cceac72	0.025228713
24	0x360cc560	2.0976513e-06
25	0xbc6a3ff2	-0.014297472
26	0x31d78d5e	6.273395e-09
27	0xb9fcf102	-0.0004824475
28	0xbae5ad4d	-0.0017522961
29	0xbc9f0c49	-0.019415038
30	0x33a0f7a4	7.495626e-08
31	0xbcbc865d	-0.023013288
32	0xbd4305dc	-0.04761301
33	0xb1d23d0b	-6.118744e-09
34	0x3af36cee	0.0018571892
35	0x3cdd8418	0.027040526
36	0xbc0f26ec	-0.008737307
37	0xbb6847da	-0.0035443217
38	0x3d14d6a0	0.036337495
39	0x32ca2068	2.3530632e-08
40	0x3da9afd7	0.08285492
41	0x3d102f57	0.035201397
42	0x368f238b	4.26587e-06
43	0x362c4c00	2.5674235e-06
44	0x3180829c	3.740139e-09
45	0xbc03bfc4	-0.008041326
46	0xb7be30fb	-2.2672573e-05
47	0xbcbcefb2	-0.023063514
48	0x3c50fa34	0.012754966
49	0xbc77fedf	-0.01513645
50	0x3c834835	0.016025642
51	0x3d6d5737	0.057944503
52	0x3c95371f	0.01821476
53	0xbcf93d68	-0.030424789
54	0x31873056	3.9345123e-09
55	0x3542465e	7.237303e-07
56	0x3bc0bf0f	0.005882151
57	0xbe2b031a	-0.16700402
58	0x353263dc	6.645548e-07
59	0x3c0437aa	0.008069912
60	0x371741e6	9.0156445e-06
61	0x3b8bf004	0.0042705555
62	0x3d71997b	0.05898426
63	0xbb615dab	-0.0034388106
64	0xaeb3f2b7	-8.1830924e-11
65	0xbc0ad567	-0.008473731
66	0xbba74179	-0.0051042405
67	0x36f03251	7.158415e-06
68	0x3cfec736	0.03110085
69	0xbc0dfaaa	-0.00866572
70	0x3156d023	3.125941e-09
71	0xbcd68d7d	-0.026190514
72	0xbd032706	-0.032019638
73	0x3cb31838	0.021862134
74	0xbc6b6dcd	-0.01436944
75	0xbcf3cff7	-0.029762251
76	0xbc2ba93a	-0.0104773585
77	0x36780a9a	3.696105e-06
78	0x3c8bde6c	0.017073832
79	0xba1349af	-0.00056185847
80	0xbcbefe18	-0.02331452
81	0xbd5b1768	-0.05348912
82	0xbd52005b	-0.05126987
83	0x37465f97	1.1823976e-05
84	0x3c9568c3	0.01823843
85	0x3c881400	0.0166111
86	0x3836f1f0	4.3617503e-05
87	0x392d269c	0.00016512949
88	0xbc1277cd	-0.008939696
89	0x3bf60dbb	0.007508961
90	0x3b8929f9	0.0041859117
91	0xbd0c1872	-0.034203
92	0xbc771625	-0.015080963
93	0x3555a212	7.9584527e-07
94	0x3d92f9fd	0.07176588
95	0x3cb79e8b	0.022414466
96	0xbc241f60	-0.010017246
97	0xbbca6212	-0.0061762417
98	0xbb205ad6	-0.0024468205
99	0x3c644c62	0.013934227
100	0x36b7d029	5.478058e-06
101	0x3c7ea3b8	0.015541963
102	0x3c84a698	0.01619272
103	0xb6f20e9e	-7.2138637e-06
104	0x3d1be770	0.038062513
105	0xbd00fbb5	-0.031490047
106	0x3a2c1401	0.000656426
107	0x37090564	8.167091e-06
108	0x3bfa402f	0.007637046
109	0x37f416f0	2.9097748e-05
110	0x389c8dc2	7.465064e-05
111	0x3bda5f85	0.006664219
112	0x327a593b	1.4572204e-08
113	0x35534500	7.8704034e-07
114	0x3dcdda0c	0.10051355
115	0xbce00b4b	-0.027349135
116	0x3d35ca6d	0.0443825
117	0x3ba50ab7	0.0050366777
118	0x3588a881	1.0181831e-06
119	0x3c5fd99d	0.013662723
120	0xb91f0802	-0.00015166405
121	0x3a1cc168	0.00059797475
122	0x338e025e	6.612821e-08
123	0x3ad21c1b	0.0016030105
124	0x3b1bc454	0.0023768144
125	0x3b22a3dc	0.0024816906
126	0x3c863048	0.016380444
127	0xbc956acf	-0.018239407
128	0xbd3dde66	-0.046354674
129	0x3a1d3591	0.0005997057
130	0x34f540cb	4.568195e-07
131	0x3b52ab3c	0.003214552
132	0x3c06ee02	0.008235456
133	0x38082c64	3.246627e-05
134	0xbabff021	-0.0014643708
135	0xbcbc6eeb	-0.023002109
136	0xbcfe0472	-0.031007979
137	0xbd49db07	-0.049281146
138	0x3bc6887c	0.0060587507
139	0x385f4668	5.3232914e-05
140	0xbc115c08	-0.00887204
141	0xbc9d2f6e	-0.019187655
142	0xbc13093e	-0.0089743715
143	0xbc01bcc0	-0.007918537
144	0xbc68c66a	-0.014207462
145	0x3cbe1710	0.023204356
146	0x3d1415ef	0.03615373
147	0x3d34d1a3	0.044145238
148	0xb461b4ec	-2.1020577e-07
149	0xbc7a52cf	-0.015278532
150	0x35ab846d	1.2779034e-06
151	0x3c071de9	0.008246877
152	0xbb95f53e	-0.0045763543
153	0xbb694ed0	-0.0035599954
154	0x34ccf391	3.817518e-07
155	0x3a31946d	0.00067741313
156	0x3d0d2328	0.034457356
157	0x3cf7685f	0.030201135
158	0x3cc72ef9	0.02431439
159	0x323198ae	1.0337471e-08
160	0xbcce1867	-0.02515812
161	0x3caa3f3d	0.020782107
162	0xb6e05593	-6.6856824e-06
163	0x32a02435	1.8642917e-08
164	0x331397a3	3.4364017e-08
165	0x3c86fbb6	0.016477447
166	0x3c0f46f3	0.008744943
167	0x3d6b14a0	0.057392716
168	0x3ccaa5e6	0.02473731
169	0x3d08e2d4	0.033419445
170	0x3c2c8024	0.010528598
171	0x3641f828	2.8903687e-06
172	0xbbf53b74	-0.007483894
173	0xbbf3f307	-0.0074447426
174	0x3ce61e71	0.028090687
175	0x36518c9d	3.1225275e-06
176	0x3c4e8ff9	0.012607568
177	0xbc823b66	-0.015897464
178	0xbca5c4a3	-0.020235365
179	0x3d23e245	0.04001071
180	0x360524c3	1.9839943e-06
181	0x3d0b1d05	0.033963222
182	0x3c5b076c	0.013368469
183	0x36bf420d	5.699933e-06
184	0x3c66848c	0.014069688
185	0xbc34d78a	-0.011037717
186	0x3b36c76a	0.0027889856
187	0x3cad958b	0.021189472
188	0xbdbfaaaa	-0.093587235
189	0x3bd0f204	0.0063765068
190	0xbc55d99e	-0.013052372
191	0x382cd20f	4.1203628e-05
192	0xbc2b0f2b	-0.010440628
193	0x3c11c469	0.0088969255
194	0xbbfef83b	-0.007781056
195	0x3b3277fe	0.0027232165
196	0x3427b5fe	1.5619295e-07
197	0xbcbd8551	-0.02313486
198	0xbb4e4c8c	-0.003147873
199	0x3da17c4f	0.07885038
200	0x3d20a39f	0.03921854
201	0x3543a894	7.2888474e-07
202	0x3d9cd3a4	0.07657555
203	0xbbd993d8	-0.006639939
204	0x3d047704	0.032340065
205	0x3bf6fc3e	0.007537394
206	0x3c829c46	0.015943658
207	0xbae3d373	-0.0017381742
208	0x3b41128e	0.0029460522
209	0xba1c340c	-0.00059586833
210	0xbc8d2af7	-0.017232401
211	0x3782da12	1.5598755e-05
212	0xbcf67237	-0.030083759
213	0xbcb4342f	-0.02199754
214	0xbce1228e	-0.027482297
215	0x35b1e5db	1.3254424e-06
216	0xb50e3764	-5.2979726e-07
217	0x3d49ade9	0.04923812
218	0xbd583086	-0.05278065
219	0x3cbb8261	0.022889318
220	0xb3b056fc	-8.211461e-08
221	0xbd177335	-0.036975104
222	0x3c9e5018	0.019325301
223	0xbd33984c	-0.043846413
224	0x3606c087	2.0079622e-06
225	0xbde96c10	-0.113975644
226	0x3bd627ee	0.0065355217
227	0x3bd1a95d	0.0063983635
228	0xbb83546e	-0.0040078675
229	0xbb390a77	-0.0028234997
230	0xbc167409	-0.009182938
231	0x352cddf7	6.4397994e-07
232	0x3c74e390	0.014946833
233	0x3d5c5398	0.05379066
234	0xbd02206a	-0.031769194
235	0xbbfa3c53	-0.0076365857
236	0xbc401f13	-0.011726159
237	0x3c4200b8	0.011840992
238	0xbc31c693	-0.010850566
239	0x3a66c1dc	0.0008802691
240	0x3c535bdc	0.012900319
241	0xb455e243	-1.9919484e-07
242	0xbcb518a1	-0.02210647
243	0xb9d612cc	-0.00040831266
244	0xbc18e3d1	-0.009331659
245	0xb982683b	-0.0002487319
246	0x3bd62cf2	0.0065361196
247	0x3b9f83bf	0.0048680003
248	0x385d4146	5.2751297e-05
249	0xbcd8508f	-0.0264056
250	0x3644e8b0	2.9341718e-06
251	0x3c3f7003	0.0116844205
252	0x3bfec496	0.0077748997
253	0x3c2f41f9	0.010696881
254	0xbc19ac3e	-0.009379445
255	0xbcc49593	-0.023997104
